{"weightsManifest": [{"paths": ["group1-shard1of23", "group1-shard2of23", "group1-shard3of23", "group1-shard4of23", "group1-shard5of23", "group1-shard6of23", "group1-shard7of23", "group1-shard8of23", "group1-shard9of23", "group1-shard10of23", "group1-shard11of23", "group1-shard12of23", "group1-shard13of23", "group1-shard14of23", "group1-shard15of23", "group1-shard16of23", "group1-shard17of23", "group1-shard18of23", "group1-shard19of23", "group1-shard20of23", "group1-shard21of23", "group1-shard22of23", "group1-shard23of23"], "weights": [{"dtype": "float32", "shape": [256], "name": "bn2a_branch1/gamma"}, {"dtype": "float32", "shape": [256], "name": "bn2a_branch1/beta"}, {"dtype": "float32", "shape": [256], "name": "bn2a_branch1/moving_mean"}, {"dtype": "float32", "shape": [256], "name": "bn2a_branch1/moving_variance"}, {"dtype": "float32", "shape": [64], "name": "bn2a_branch2a/gamma"}, {"dtype": "float32", "shape": [64], "name": "bn2a_branch2a/beta"}, {"dtype": "float32", "shape": [64], "name": "bn2a_branch2a/moving_mean"}, {"dtype": "float32", "shape": [64], "name": "bn2a_branch2a/moving_variance"}, {"dtype": "float32", "shape": [64], "name": "bn2a_branch2b/gamma"}, {"dtype": "float32", "shape": [64], "name": "bn2a_branch2b/beta"}, {"dtype": "float32", "shape": [64], "name": "bn2a_branch2b/moving_mean"}, {"dtype": "float32", "shape": [64], "name": "bn2a_branch2b/moving_variance"}, {"dtype": "float32", "shape": [256], "name": "bn2a_branch2c/gamma"}, {"dtype": "float32", "shape": [256], "name": "bn2a_branch2c/beta"}, {"dtype": "float32", "shape": [256], "name": "bn2a_branch2c/moving_mean"}, {"dtype": "float32", "shape": [256], "name": "bn2a_branch2c/moving_variance"}, {"dtype": "float32", "shape": [64], "name": "bn2b_branch2a/gamma"}, {"dtype": "float32", "shape": [64], "name": "bn2b_branch2a/beta"}, {"dtype": "float32", "shape": [64], "name": "bn2b_branch2a/moving_mean"}, {"dtype": "float32", "shape": [64], "name": "bn2b_branch2a/moving_variance"}, {"dtype": "float32", "shape": [64], "name": "bn2b_branch2b/gamma"}, {"dtype": "float32", "shape": [64], "name": "bn2b_branch2b/beta"}, {"dtype": "float32", "shape": [64], "name": "bn2b_branch2b/moving_mean"}, {"dtype": "float32", "shape": [64], "name": "bn2b_branch2b/moving_variance"}, {"dtype": "float32", "shape": [256], "name": "bn2b_branch2c/gamma"}, {"dtype": "float32", "shape": [256], "name": "bn2b_branch2c/beta"}, {"dtype": "float32", "shape": [256], "name": "bn2b_branch2c/moving_mean"}, {"dtype": "float32", "shape": [256], "name": "bn2b_branch2c/moving_variance"}, {"dtype": "float32", "shape": [64], "name": "bn2c_branch2a/gamma"}, {"dtype": "float32", "shape": [64], "name": "bn2c_branch2a/beta"}, {"dtype": "float32", "shape": [64], "name": "bn2c_branch2a/moving_mean"}, {"dtype": "float32", "shape": [64], "name": "bn2c_branch2a/moving_variance"}, {"dtype": "float32", "shape": [64], "name": "bn2c_branch2b/gamma"}, {"dtype": "float32", "shape": [64], "name": "bn2c_branch2b/beta"}, {"dtype": "float32", "shape": [64], "name": "bn2c_branch2b/moving_mean"}, {"dtype": "float32", "shape": [64], "name": "bn2c_branch2b/moving_variance"}, {"dtype": "float32", "shape": [256], "name": "bn2c_branch2c/gamma"}, {"dtype": "float32", "shape": [256], "name": "bn2c_branch2c/beta"}, {"dtype": "float32", "shape": [256], "name": "bn2c_branch2c/moving_mean"}, {"dtype": "float32", "shape": [256], "name": "bn2c_branch2c/moving_variance"}, {"dtype": "float32", "shape": [512], "name": "bn3a_branch1/gamma"}, {"dtype": "float32", "shape": [512], "name": "bn3a_branch1/beta"}, {"dtype": "float32", "shape": [512], "name": "bn3a_branch1/moving_mean"}, {"dtype": "float32", "shape": [512], "name": "bn3a_branch1/moving_variance"}, {"dtype": "float32", "shape": [128], "name": "bn3a_branch2a/gamma"}, {"dtype": "float32", "shape": [128], "name": "bn3a_branch2a/beta"}, {"dtype": "float32", "shape": [128], "name": "bn3a_branch2a/moving_mean"}, {"dtype": "float32", "shape": [128], "name": "bn3a_branch2a/moving_variance"}, {"dtype": "float32", "shape": [128], "name": "bn3a_branch2b/gamma"}, {"dtype": "float32", "shape": [128], "name": "bn3a_branch2b/beta"}, {"dtype": "float32", "shape": [128], "name": "bn3a_branch2b/moving_mean"}, {"dtype": "float32", "shape": [128], "name": "bn3a_branch2b/moving_variance"}, {"dtype": "float32", "shape": [512], "name": "bn3a_branch2c/gamma"}, {"dtype": "float32", "shape": [512], "name": "bn3a_branch2c/beta"}, {"dtype": "float32", "shape": [512], "name": "bn3a_branch2c/moving_mean"}, {"dtype": "float32", "shape": [512], "name": "bn3a_branch2c/moving_variance"}, {"dtype": "float32", "shape": [128], "name": "bn3b_branch2a/gamma"}, {"dtype": "float32", "shape": [128], "name": "bn3b_branch2a/beta"}, {"dtype": "float32", "shape": [128], "name": "bn3b_branch2a/moving_mean"}, {"dtype": "float32", "shape": [128], "name": "bn3b_branch2a/moving_variance"}, {"dtype": "float32", "shape": [128], "name": "bn3b_branch2b/gamma"}, {"dtype": "float32", "shape": [128], "name": "bn3b_branch2b/beta"}, {"dtype": "float32", "shape": [128], "name": "bn3b_branch2b/moving_mean"}, {"dtype": "float32", "shape": [128], "name": "bn3b_branch2b/moving_variance"}, {"dtype": "float32", "shape": [512], "name": "bn3b_branch2c/gamma"}, {"dtype": "float32", "shape": [512], "name": "bn3b_branch2c/beta"}, {"dtype": "float32", "shape": [512], "name": "bn3b_branch2c/moving_mean"}, {"dtype": "float32", "shape": [512], "name": "bn3b_branch2c/moving_variance"}, {"dtype": "float32", "shape": [128], "name": "bn3c_branch2a/gamma"}, {"dtype": "float32", "shape": [128], "name": "bn3c_branch2a/beta"}, {"dtype": "float32", "shape": [128], "name": "bn3c_branch2a/moving_mean"}, {"dtype": "float32", "shape": [128], "name": "bn3c_branch2a/moving_variance"}, {"dtype": "float32", "shape": [128], "name": "bn3c_branch2b/gamma"}, {"dtype": "float32", "shape": [128], "name": "bn3c_branch2b/beta"}, {"dtype": "float32", "shape": [128], "name": "bn3c_branch2b/moving_mean"}, {"dtype": "float32", "shape": [128], "name": "bn3c_branch2b/moving_variance"}, {"dtype": "float32", "shape": [512], "name": "bn3c_branch2c/gamma"}, {"dtype": "float32", "shape": [512], "name": "bn3c_branch2c/beta"}, {"dtype": "float32", "shape": [512], "name": "bn3c_branch2c/moving_mean"}, {"dtype": "float32", "shape": [512], "name": "bn3c_branch2c/moving_variance"}, {"dtype": "float32", "shape": [128], "name": "bn3d_branch2a/gamma"}, {"dtype": "float32", "shape": [128], "name": "bn3d_branch2a/beta"}, {"dtype": "float32", "shape": [128], "name": "bn3d_branch2a/moving_mean"}, {"dtype": "float32", "shape": [128], "name": "bn3d_branch2a/moving_variance"}, {"dtype": "float32", "shape": [128], "name": "bn3d_branch2b/gamma"}, {"dtype": "float32", "shape": [128], "name": "bn3d_branch2b/beta"}, {"dtype": "float32", "shape": [128], "name": "bn3d_branch2b/moving_mean"}, {"dtype": "float32", "shape": [128], "name": "bn3d_branch2b/moving_variance"}, {"dtype": "float32", "shape": [512], "name": "bn3d_branch2c/gamma"}, {"dtype": "float32", "shape": [512], "name": "bn3d_branch2c/beta"}, {"dtype": "float32", "shape": [512], "name": "bn3d_branch2c/moving_mean"}, {"dtype": "float32", "shape": [512], "name": "bn3d_branch2c/moving_variance"}, {"dtype": "float32", "shape": [1024], "name": "bn4a_branch1/gamma"}, {"dtype": "float32", "shape": [1024], "name": "bn4a_branch1/beta"}, {"dtype": "float32", "shape": [1024], "name": "bn4a_branch1/moving_mean"}, {"dtype": "float32", "shape": [1024], "name": "bn4a_branch1/moving_variance"}, {"dtype": "float32", "shape": [256], "name": "bn4a_branch2a/gamma"}, {"dtype": "float32", "shape": [256], "name": "bn4a_branch2a/beta"}, {"dtype": "float32", "shape": [256], "name": "bn4a_branch2a/moving_mean"}, {"dtype": "float32", "shape": [256], "name": "bn4a_branch2a/moving_variance"}, {"dtype": "float32", "shape": [256], "name": "bn4a_branch2b/gamma"}, {"dtype": "float32", "shape": [256], "name": "bn4a_branch2b/beta"}, {"dtype": "float32", "shape": [256], "name": "bn4a_branch2b/moving_mean"}, {"dtype": "float32", "shape": [256], "name": "bn4a_branch2b/moving_variance"}, {"dtype": "float32", "shape": [1024], "name": "bn4a_branch2c/gamma"}, {"dtype": "float32", "shape": [1024], "name": "bn4a_branch2c/beta"}, {"dtype": "float32", "shape": [1024], "name": "bn4a_branch2c/moving_mean"}, {"dtype": "float32", "shape": [1024], "name": "bn4a_branch2c/moving_variance"}, {"dtype": "float32", "shape": [256], "name": "bn4b_branch2a/gamma"}, {"dtype": "float32", "shape": [256], "name": "bn4b_branch2a/beta"}, {"dtype": "float32", "shape": [256], "name": "bn4b_branch2a/moving_mean"}, {"dtype": "float32", "shape": [256], "name": "bn4b_branch2a/moving_variance"}, {"dtype": "float32", "shape": [256], "name": "bn4b_branch2b/gamma"}, {"dtype": "float32", "shape": [256], "name": "bn4b_branch2b/beta"}, {"dtype": "float32", "shape": [256], "name": "bn4b_branch2b/moving_mean"}, {"dtype": "float32", "shape": [256], "name": "bn4b_branch2b/moving_variance"}, {"dtype": "float32", "shape": [1024], "name": "bn4b_branch2c/gamma"}, {"dtype": "float32", "shape": [1024], "name": "bn4b_branch2c/beta"}, {"dtype": "float32", "shape": [1024], "name": "bn4b_branch2c/moving_mean"}, {"dtype": "float32", "shape": [1024], "name": "bn4b_branch2c/moving_variance"}, {"dtype": "float32", "shape": [256], "name": "bn4c_branch2a/gamma"}, {"dtype": "float32", "shape": [256], "name": "bn4c_branch2a/beta"}, {"dtype": "float32", "shape": [256], "name": "bn4c_branch2a/moving_mean"}, {"dtype": "float32", "shape": [256], "name": "bn4c_branch2a/moving_variance"}, {"dtype": "float32", "shape": [256], "name": "bn4c_branch2b/gamma"}, {"dtype": "float32", "shape": [256], "name": "bn4c_branch2b/beta"}, {"dtype": "float32", "shape": [256], "name": "bn4c_branch2b/moving_mean"}, {"dtype": "float32", "shape": [256], "name": "bn4c_branch2b/moving_variance"}, {"dtype": "float32", "shape": [1024], "name": "bn4c_branch2c/gamma"}, {"dtype": "float32", "shape": [1024], "name": "bn4c_branch2c/beta"}, {"dtype": "float32", "shape": [1024], "name": "bn4c_branch2c/moving_mean"}, {"dtype": "float32", "shape": [1024], "name": "bn4c_branch2c/moving_variance"}, {"dtype": "float32", "shape": [256], "name": "bn4d_branch2a/gamma"}, {"dtype": "float32", "shape": [256], "name": "bn4d_branch2a/beta"}, {"dtype": "float32", "shape": [256], "name": "bn4d_branch2a/moving_mean"}, {"dtype": "float32", "shape": [256], "name": "bn4d_branch2a/moving_variance"}, {"dtype": "float32", "shape": [256], "name": "bn4d_branch2b/gamma"}, {"dtype": "float32", "shape": [256], "name": "bn4d_branch2b/beta"}, {"dtype": "float32", "shape": [256], "name": "bn4d_branch2b/moving_mean"}, {"dtype": "float32", "shape": [256], "name": "bn4d_branch2b/moving_variance"}, {"dtype": "float32", "shape": [1024], "name": "bn4d_branch2c/gamma"}, {"dtype": "float32", "shape": [1024], "name": "bn4d_branch2c/beta"}, {"dtype": "float32", "shape": [1024], "name": "bn4d_branch2c/moving_mean"}, {"dtype": "float32", "shape": [1024], "name": "bn4d_branch2c/moving_variance"}, {"dtype": "float32", "shape": [256], "name": "bn4e_branch2a/gamma"}, {"dtype": "float32", "shape": [256], "name": "bn4e_branch2a/beta"}, {"dtype": "float32", "shape": [256], "name": "bn4e_branch2a/moving_mean"}, {"dtype": "float32", "shape": [256], "name": "bn4e_branch2a/moving_variance"}, {"dtype": "float32", "shape": [256], "name": "bn4e_branch2b/gamma"}, {"dtype": "float32", "shape": [256], "name": "bn4e_branch2b/beta"}, {"dtype": "float32", "shape": [256], "name": "bn4e_branch2b/moving_mean"}, {"dtype": "float32", "shape": [256], "name": "bn4e_branch2b/moving_variance"}, {"dtype": "float32", "shape": [1024], "name": "bn4e_branch2c/gamma"}, {"dtype": "float32", "shape": [1024], "name": "bn4e_branch2c/beta"}, {"dtype": "float32", "shape": [1024], "name": "bn4e_branch2c/moving_mean"}, {"dtype": "float32", "shape": [1024], "name": "bn4e_branch2c/moving_variance"}, {"dtype": "float32", "shape": [256], "name": "bn4f_branch2a/gamma"}, {"dtype": "float32", "shape": [256], "name": "bn4f_branch2a/beta"}, {"dtype": "float32", "shape": [256], "name": "bn4f_branch2a/moving_mean"}, {"dtype": "float32", "shape": [256], "name": "bn4f_branch2a/moving_variance"}, {"dtype": "float32", "shape": [256], "name": "bn4f_branch2b/gamma"}, {"dtype": "float32", "shape": [256], "name": "bn4f_branch2b/beta"}, {"dtype": "float32", "shape": [256], "name": "bn4f_branch2b/moving_mean"}, {"dtype": "float32", "shape": [256], "name": "bn4f_branch2b/moving_variance"}, {"dtype": "float32", "shape": [1024], "name": "bn4f_branch2c/gamma"}, {"dtype": "float32", "shape": [1024], "name": "bn4f_branch2c/beta"}, {"dtype": "float32", "shape": [1024], "name": "bn4f_branch2c/moving_mean"}, {"dtype": "float32", "shape": [1024], "name": "bn4f_branch2c/moving_variance"}, {"dtype": "float32", "shape": [2048], "name": "bn5a_branch1/gamma"}, {"dtype": "float32", "shape": [2048], "name": "bn5a_branch1/beta"}, {"dtype": "float32", "shape": [2048], "name": "bn5a_branch1/moving_mean"}, {"dtype": "float32", "shape": [2048], "name": "bn5a_branch1/moving_variance"}, {"dtype": "float32", "shape": [512], "name": "bn5a_branch2a/gamma"}, {"dtype": "float32", "shape": [512], "name": "bn5a_branch2a/beta"}, {"dtype": "float32", "shape": [512], "name": "bn5a_branch2a/moving_mean"}, {"dtype": "float32", "shape": [512], "name": "bn5a_branch2a/moving_variance"}, {"dtype": "float32", "shape": [512], "name": "bn5a_branch2b/gamma"}, {"dtype": "float32", "shape": [512], "name": "bn5a_branch2b/beta"}, {"dtype": "float32", "shape": [512], "name": "bn5a_branch2b/moving_mean"}, {"dtype": "float32", "shape": [512], "name": "bn5a_branch2b/moving_variance"}, {"dtype": "float32", "shape": [2048], "name": "bn5a_branch2c/gamma"}, {"dtype": "float32", "shape": [2048], "name": "bn5a_branch2c/beta"}, {"dtype": "float32", "shape": [2048], "name": "bn5a_branch2c/moving_mean"}, {"dtype": "float32", "shape": [2048], "name": "bn5a_branch2c/moving_variance"}, {"dtype": "float32", "shape": [512], "name": "bn5b_branch2a/gamma"}, {"dtype": "float32", "shape": [512], "name": "bn5b_branch2a/beta"}, {"dtype": "float32", "shape": [512], "name": "bn5b_branch2a/moving_mean"}, {"dtype": "float32", "shape": [512], "name": "bn5b_branch2a/moving_variance"}, {"dtype": "float32", "shape": [512], "name": "bn5b_branch2b/gamma"}, {"dtype": "float32", "shape": [512], "name": "bn5b_branch2b/beta"}, {"dtype": "float32", "shape": [512], "name": "bn5b_branch2b/moving_mean"}, {"dtype": "float32", "shape": [512], "name": "bn5b_branch2b/moving_variance"}, {"dtype": "float32", "shape": [2048], "name": "bn5b_branch2c/gamma"}, {"dtype": "float32", "shape": [2048], "name": "bn5b_branch2c/beta"}, {"dtype": "float32", "shape": [2048], "name": "bn5b_branch2c/moving_mean"}, {"dtype": "float32", "shape": [2048], "name": "bn5b_branch2c/moving_variance"}, {"dtype": "float32", "shape": [512], "name": "bn5c_branch2a/gamma"}, {"dtype": "float32", "shape": [512], "name": "bn5c_branch2a/beta"}, {"dtype": "float32", "shape": [512], "name": "bn5c_branch2a/moving_mean"}, {"dtype": "float32", "shape": [512], "name": "bn5c_branch2a/moving_variance"}, {"dtype": "float32", "shape": [512], "name": "bn5c_branch2b/gamma"}, {"dtype": "float32", "shape": [512], "name": "bn5c_branch2b/beta"}, {"dtype": "float32", "shape": [512], "name": "bn5c_branch2b/moving_mean"}, {"dtype": "float32", "shape": [512], "name": "bn5c_branch2b/moving_variance"}, {"dtype": "float32", "shape": [2048], "name": "bn5c_branch2c/gamma"}, {"dtype": "float32", "shape": [2048], "name": "bn5c_branch2c/beta"}, {"dtype": "float32", "shape": [2048], "name": "bn5c_branch2c/moving_mean"}, {"dtype": "float32", "shape": [2048], "name": "bn5c_branch2c/moving_variance"}, {"dtype": "float32", "shape": [64], "name": "bn_conv1/gamma"}, {"dtype": "float32", "shape": [64], "name": "bn_conv1/beta"}, {"dtype": "float32", "shape": [64], "name": "bn_conv1/moving_mean"}, {"dtype": "float32", "shape": [64], "name": "bn_conv1/moving_variance"}, {"dtype": "float32", "shape": [7, 7, 3, 64], "name": "conv1/kernel"}, {"dtype": "float32", "shape": [64], "name": "conv1/bias"}, {"dtype": "float32", "shape": [1, 1, 64, 256], "name": "res2a_branch1/kernel"}, {"dtype": "float32", "shape": [256], "name": "res2a_branch1/bias"}, {"dtype": "float32", "shape": [1, 1, 64, 64], "name": "res2a_branch2a/kernel"}, {"dtype": "float32", "shape": [64], "name": "res2a_branch2a/bias"}, {"dtype": "float32", "shape": [3, 3, 64, 64], "name": "res2a_branch2b/kernel"}, {"dtype": "float32", "shape": [64], "name": "res2a_branch2b/bias"}, {"dtype": "float32", "shape": [1, 1, 64, 256], "name": "res2a_branch2c/kernel"}, {"dtype": "float32", "shape": [256], "name": "res2a_branch2c/bias"}, {"dtype": "float32", "shape": [1, 1, 256, 64], "name": "res2b_branch2a/kernel"}, {"dtype": "float32", "shape": [64], "name": "res2b_branch2a/bias"}, {"dtype": "float32", "shape": [3, 3, 64, 64], "name": "res2b_branch2b/kernel"}, {"dtype": "float32", "shape": [64], "name": "res2b_branch2b/bias"}, {"dtype": "float32", "shape": [1, 1, 64, 256], "name": "res2b_branch2c/kernel"}, {"dtype": "float32", "shape": [256], "name": "res2b_branch2c/bias"}, {"dtype": "float32", "shape": [1, 1, 256, 64], "name": "res2c_branch2a/kernel"}, {"dtype": "float32", "shape": [64], "name": "res2c_branch2a/bias"}, {"dtype": "float32", "shape": [3, 3, 64, 64], "name": "res2c_branch2b/kernel"}, {"dtype": "float32", "shape": [64], "name": "res2c_branch2b/bias"}, {"dtype": "float32", "shape": [1, 1, 64, 256], "name": "res2c_branch2c/kernel"}, {"dtype": "float32", "shape": [256], "name": "res2c_branch2c/bias"}, {"dtype": "float32", "shape": [1, 1, 256, 512], "name": "res3a_branch1/kernel"}, {"dtype": "float32", "shape": [512], "name": "res3a_branch1/bias"}, {"dtype": "float32", "shape": [1, 1, 256, 128], "name": "res3a_branch2a/kernel"}, {"dtype": "float32", "shape": [128], "name": "res3a_branch2a/bias"}, {"dtype": "float32", "shape": [3, 3, 128, 128], "name": "res3a_branch2b/kernel"}, {"dtype": "float32", "shape": [128], "name": "res3a_branch2b/bias"}, {"dtype": "float32", "shape": [1, 1, 128, 512], "name": "res3a_branch2c/kernel"}, {"dtype": "float32", "shape": [512], "name": "res3a_branch2c/bias"}, {"dtype": "float32", "shape": [1, 1, 512, 128], "name": "res3b_branch2a/kernel"}, {"dtype": "float32", "shape": [128], "name": "res3b_branch2a/bias"}, {"dtype": "float32", "shape": [3, 3, 128, 128], "name": "res3b_branch2b/kernel"}, {"dtype": "float32", "shape": [128], "name": "res3b_branch2b/bias"}, {"dtype": "float32", "shape": [1, 1, 128, 512], "name": "res3b_branch2c/kernel"}, {"dtype": "float32", "shape": [512], "name": "res3b_branch2c/bias"}, {"dtype": "float32", "shape": [1, 1, 512, 128], "name": "res3c_branch2a/kernel"}, {"dtype": "float32", "shape": [128], "name": "res3c_branch2a/bias"}, {"dtype": "float32", "shape": [3, 3, 128, 128], "name": "res3c_branch2b/kernel"}, {"dtype": "float32", "shape": [128], "name": "res3c_branch2b/bias"}, {"dtype": "float32", "shape": [1, 1, 128, 512], "name": "res3c_branch2c/kernel"}, {"dtype": "float32", "shape": [512], "name": "res3c_branch2c/bias"}, {"dtype": "float32", "shape": [1, 1, 512, 128], "name": "res3d_branch2a/kernel"}, {"dtype": "float32", "shape": [128], "name": "res3d_branch2a/bias"}, {"dtype": "float32", "shape": [3, 3, 128, 128], "name": "res3d_branch2b/kernel"}, {"dtype": "float32", "shape": [128], "name": "res3d_branch2b/bias"}, {"dtype": "float32", "shape": [1, 1, 128, 512], "name": "res3d_branch2c/kernel"}, {"dtype": "float32", "shape": [512], "name": "res3d_branch2c/bias"}, {"dtype": "float32", "shape": [1, 1, 512, 1024], "name": "res4a_branch1/kernel"}, {"dtype": "float32", "shape": [1024], "name": "res4a_branch1/bias"}, {"dtype": "float32", "shape": [1, 1, 512, 256], "name": "res4a_branch2a/kernel"}, {"dtype": "float32", "shape": [256], "name": "res4a_branch2a/bias"}, {"dtype": "float32", "shape": [3, 3, 256, 256], "name": "res4a_branch2b/kernel"}, {"dtype": "float32", "shape": [256], "name": "res4a_branch2b/bias"}, {"dtype": "float32", "shape": [1, 1, 256, 1024], "name": "res4a_branch2c/kernel"}, {"dtype": "float32", "shape": [1024], "name": "res4a_branch2c/bias"}, {"dtype": "float32", "shape": [1, 1, 1024, 256], "name": "res4b_branch2a/kernel"}, {"dtype": "float32", "shape": [256], "name": "res4b_branch2a/bias"}, {"dtype": "float32", "shape": [3, 3, 256, 256], "name": "res4b_branch2b/kernel"}, {"dtype": "float32", "shape": [256], "name": "res4b_branch2b/bias"}, {"dtype": "float32", "shape": [1, 1, 256, 1024], "name": "res4b_branch2c/kernel"}, {"dtype": "float32", "shape": [1024], "name": "res4b_branch2c/bias"}, {"dtype": "float32", "shape": [1, 1, 1024, 256], "name": "res4c_branch2a/kernel"}, {"dtype": "float32", "shape": [256], "name": "res4c_branch2a/bias"}, {"dtype": "float32", "shape": [3, 3, 256, 256], "name": "res4c_branch2b/kernel"}, {"dtype": "float32", "shape": [256], "name": "res4c_branch2b/bias"}, {"dtype": "float32", "shape": [1, 1, 256, 1024], "name": "res4c_branch2c/kernel"}, {"dtype": "float32", "shape": [1024], "name": "res4c_branch2c/bias"}, {"dtype": "float32", "shape": [1, 1, 1024, 256], "name": "res4d_branch2a/kernel"}, {"dtype": "float32", "shape": [256], "name": "res4d_branch2a/bias"}, {"dtype": "float32", "shape": [3, 3, 256, 256], "name": "res4d_branch2b/kernel"}, {"dtype": "float32", "shape": [256], "name": "res4d_branch2b/bias"}, {"dtype": "float32", "shape": [1, 1, 256, 1024], "name": "res4d_branch2c/kernel"}, {"dtype": "float32", "shape": [1024], "name": "res4d_branch2c/bias"}, {"dtype": "float32", "shape": [1, 1, 1024, 256], "name": "res4e_branch2a/kernel"}, {"dtype": "float32", "shape": [256], "name": "res4e_branch2a/bias"}, {"dtype": "float32", "shape": [3, 3, 256, 256], "name": "res4e_branch2b/kernel"}, {"dtype": "float32", "shape": [256], "name": "res4e_branch2b/bias"}, {"dtype": "float32", "shape": [1, 1, 256, 1024], "name": "res4e_branch2c/kernel"}, {"dtype": "float32", "shape": [1024], "name": "res4e_branch2c/bias"}, {"dtype": "float32", "shape": [1, 1, 1024, 256], "name": "res4f_branch2a/kernel"}, {"dtype": "float32", "shape": [256], "name": "res4f_branch2a/bias"}, {"dtype": "float32", "shape": [3, 3, 256, 256], "name": "res4f_branch2b/kernel"}, {"dtype": "float32", "shape": [256], "name": "res4f_branch2b/bias"}, {"dtype": "float32", "shape": [1, 1, 256, 1024], "name": "res4f_branch2c/kernel"}, {"dtype": "float32", "shape": [1024], "name": "res4f_branch2c/bias"}, {"dtype": "float32", "shape": [1, 1, 1024, 2048], "name": "res5a_branch1/kernel"}, {"dtype": "float32", "shape": [2048], "name": "res5a_branch1/bias"}, {"dtype": "float32", "shape": [1, 1, 1024, 512], "name": "res5a_branch2a/kernel"}, {"dtype": "float32", "shape": [512], "name": "res5a_branch2a/bias"}, {"dtype": "float32", "shape": [3, 3, 512, 512], "name": "res5a_branch2b/kernel"}, {"dtype": "float32", "shape": [512], "name": "res5a_branch2b/bias"}, {"dtype": "float32", "shape": [1, 1, 512, 2048], "name": "res5a_branch2c/kernel"}, {"dtype": "float32", "shape": [2048], "name": "res5a_branch2c/bias"}, {"dtype": "float32", "shape": [1, 1, 2048, 512], "name": "res5b_branch2a/kernel"}, {"dtype": "float32", "shape": [512], "name": "res5b_branch2a/bias"}, {"dtype": "float32", "shape": [3, 3, 512, 512], "name": "res5b_branch2b/kernel"}, {"dtype": "float32", "shape": [512], "name": "res5b_branch2b/bias"}, {"dtype": "float32", "shape": [1, 1, 512, 2048], "name": "res5b_branch2c/kernel"}, {"dtype": "float32", "shape": [2048], "name": "res5b_branch2c/bias"}, {"dtype": "float32", "shape": [1, 1, 2048, 512], "name": "res5c_branch2a/kernel"}, {"dtype": "float32", "shape": [512], "name": "res5c_branch2a/bias"}, {"dtype": "float32", "shape": [3, 3, 512, 512], "name": "res5c_branch2b/kernel"}, {"dtype": "float32", "shape": [512], "name": "res5c_branch2b/bias"}, {"dtype": "float32", "shape": [1, 1, 512, 2048], "name": "res5c_branch2c/kernel"}, {"dtype": "float32", "shape": [2048], "name": "res5c_branch2c/bias"}, {"dtype": "float32", "shape": [2048, 2], "name": "softmax/kernel"}, {"dtype": "float32", "shape": [2], "name": "softmax/bias"}]}], "modelTopology": {"training_config": {"loss_weights": null, "loss": "categorical_crossentropy", "sample_weight_mode": null, "metrics": ["accuracy"], "optimizer_config": {"class_name": "Adam", "config": {"beta_1": 0.8999999761581421, "lr": 9.999999747378752e-06, "amsgrad": false, "decay": 0.0, "epsilon": 1e-07, "beta_2": 0.9990000128746033}}}, "model_config": {"class_name": "Model", "config": {"layers": [{"inbound_nodes": [], "class_name": "InputLayer", "config": {"batch_input_shape": [null, 224, 224, 3], "dtype": "float32", "sparse": false, "name": "input_1"}, "name": "input_1"}, {"inbound_nodes": [[["input_1", 0, 0, {}]]], "class_name": "Conv2D", "config": {"kernel_constraint": null, "activity_regularizer": null, "kernel_initializer": {"class_name": "VarianceScaling", "config": {"dtype": "float32", "mode": "fan_avg", "distribution": "uniform", "scale": 1.0, "seed": null}}, "name": "conv1", "dtype": "float32", "trainable": false, "bias_initializer": {"class_name": "Zeros", "config": {"dtype": "float32"}}, "bias_constraint": null, "strides": [2, 2], "data_format": "channels_last", "filters": 64, "dilation_rate": [1, 1], "kernel_regularizer": null, "use_bias": true, "bias_regularizer": null, "activation": "linear", "kernel_size": [7, 7], "padding": "same"}, "name": "conv1"}, {"inbound_nodes": [[["conv1", 0, 0, {}]]], "class_name": "BatchNormalization", "config": {"gamma_initializer": {"class_name": "Ones", "config": {"dtype": "float32"}}, "name": "bn_conv1", "beta_constraint": null, "momentum": 0.99, "scale": true, "center": true, "dtype": "float32", "axis": [3], "moving_mean_initializer": {"class_name": "Zeros", "config": {"dtype": "float32"}}, "beta_initializer": {"class_name": "Zeros", "config": {"dtype": "float32"}}, "gamma_regularizer": null, "gamma_constraint": null, "moving_variance_initializer": {"class_name": "Ones", "config": {"dtype": "float32"}}, "beta_regularizer": null, "trainable": true, "epsilon": 0.001}, "name": "bn_conv1"}, {"inbound_nodes": [[["bn_conv1", 0, 0, {}]]], "class_name": "Activation", "config": {"dtype": "float32", "trainable": true, "activation": "relu", "name": "activation"}, "name": "activation"}, {"inbound_nodes": [[["activation", 0, 0, {}]]], "class_name": "MaxPooling2D", "config": {"strides": [2, 2], "trainable": true, "dtype": "float32", "pool_size": [3, 3], "name": "max_pooling2d", "data_format": "channels_last", "padding": "valid"}, "name": "max_pooling2d"}, {"inbound_nodes": [[["max_pooling2d", 0, 0, {}]]], "class_name": "Conv2D", "config": {"kernel_constraint": null, "activity_regularizer": null, "kernel_initializer": {"class_name": "VarianceScaling", "config": {"dtype": "float32", "mode": "fan_avg", "distribution": "uniform", "scale": 1.0, "seed": null}}, "name": "res2a_branch2a", "dtype": "float32", "trainable": true, "bias_initializer": {"class_name": "Zeros", "config": {"dtype": "float32"}}, "bias_constraint": null, "strides": [1, 1], "data_format": "channels_last", "filters": 64, "dilation_rate": [1, 1], "kernel_regularizer": null, "use_bias": true, "bias_regularizer": null, "activation": "linear", "kernel_size": [1, 1], "padding": "valid"}, "name": "res2a_branch2a"}, {"inbound_nodes": [[["res2a_branch2a", 0, 0, {}]]], "class_name": "BatchNormalization", "config": {"gamma_initializer": {"class_name": "Ones", "config": {"dtype": "float32"}}, "name": "bn2a_branch2a", "beta_constraint": null, "momentum": 0.99, "scale": true, "center": true, "dtype": "float32", "axis": [3], "moving_mean_initializer": {"class_name": "Zeros", "config": {"dtype": "float32"}}, "beta_initializer": {"class_name": "Zeros", "config": {"dtype": "float32"}}, "gamma_regularizer": null, "gamma_constraint": null, "moving_variance_initializer": {"class_name": "Ones", "config": {"dtype": "float32"}}, "beta_regularizer": null, "trainable": true, "epsilon": 0.001}, "name": "bn2a_branch2a"}, {"inbound_nodes": [[["bn2a_branch2a", 0, 0, {}]]], "class_name": "Activation", "config": {"dtype": "float32", "trainable": true, "activation": "relu", "name": "activation_1"}, "name": "activation_1"}, {"inbound_nodes": [[["activation_1", 0, 0, {}]]], "class_name": "Conv2D", "config": {"kernel_constraint": null, "activity_regularizer": null, "kernel_initializer": {"class_name": "VarianceScaling", "config": {"dtype": "float32", "mode": "fan_avg", "distribution": "uniform", "scale": 1.0, "seed": null}}, "name": "res2a_branch2b", "dtype": "float32", "trainable": true, "bias_initializer": {"class_name": "Zeros", "config": {"dtype": "float32"}}, "bias_constraint": null, "strides": [1, 1], "data_format": "channels_last", "filters": 64, "dilation_rate": [1, 1], "kernel_regularizer": null, "use_bias": true, "bias_regularizer": null, "activation": "linear", "kernel_size": [3, 3], "padding": "same"}, "name": "res2a_branch2b"}, {"inbound_nodes": [[["res2a_branch2b", 0, 0, {}]]], "class_name": "BatchNormalization", "config": {"gamma_initializer": {"class_name": "Ones", "config": {"dtype": "float32"}}, "name": "bn2a_branch2b", "beta_constraint": null, "momentum": 0.99, "scale": true, "center": true, "dtype": "float32", "axis": [3], "moving_mean_initializer": {"class_name": "Zeros", "config": {"dtype": "float32"}}, "beta_initializer": {"class_name": "Zeros", "config": {"dtype": "float32"}}, "gamma_regularizer": null, "gamma_constraint": null, "moving_variance_initializer": {"class_name": "Ones", "config": {"dtype": "float32"}}, "beta_regularizer": null, "trainable": true, "epsilon": 0.001}, "name": "bn2a_branch2b"}, {"inbound_nodes": [[["bn2a_branch2b", 0, 0, {}]]], "class_name": "Activation", "config": {"dtype": "float32", "trainable": true, "activation": "relu", "name": "activation_2"}, "name": "activation_2"}, {"inbound_nodes": [[["activation_2", 0, 0, {}]]], "class_name": "Conv2D", "config": {"kernel_constraint": null, "activity_regularizer": null, "kernel_initializer": {"class_name": "VarianceScaling", "config": {"dtype": "float32", "mode": "fan_avg", "distribution": "uniform", "scale": 1.0, "seed": null}}, "name": "res2a_branch2c", "dtype": "float32", "trainable": true, "bias_initializer": {"class_name": "Zeros", "config": {"dtype": "float32"}}, "bias_constraint": null, "strides": [1, 1], "data_format": "channels_last", "filters": 256, "dilation_rate": [1, 1], "kernel_regularizer": null, "use_bias": true, "bias_regularizer": null, "activation": "linear", "kernel_size": [1, 1], "padding": "valid"}, "name": "res2a_branch2c"}, {"inbound_nodes": [[["max_pooling2d", 0, 0, {}]]], "class_name": "Conv2D", "config": {"kernel_constraint": null, "activity_regularizer": null, "kernel_initializer": {"class_name": "VarianceScaling", "config": {"dtype": "float32", "mode": "fan_avg", "distribution": "uniform", "scale": 1.0, "seed": null}}, "name": "res2a_branch1", "dtype": "float32", "trainable": true, "bias_initializer": {"class_name": "Zeros", "config": {"dtype": "float32"}}, "bias_constraint": null, "strides": [1, 1], "data_format": "channels_last", "filters": 256, "dilation_rate": [1, 1], "kernel_regularizer": null, "use_bias": true, "bias_regularizer": null, "activation": "linear", "kernel_size": [1, 1], "padding": "valid"}, "name": "res2a_branch1"}, {"inbound_nodes": [[["res2a_branch2c", 0, 0, {}]]], "class_name": "BatchNormalization", "config": {"gamma_initializer": {"class_name": "Ones", "config": {"dtype": "float32"}}, "name": "bn2a_branch2c", "beta_constraint": null, "momentum": 0.99, "scale": true, "center": true, "dtype": "float32", "axis": [3], "moving_mean_initializer": {"class_name": "Zeros", "config": {"dtype": "float32"}}, "beta_initializer": {"class_name": "Zeros", "config": {"dtype": "float32"}}, "gamma_regularizer": null, "gamma_constraint": null, "moving_variance_initializer": {"class_name": "Ones", "config": {"dtype": "float32"}}, "beta_regularizer": null, "trainable": true, "epsilon": 0.001}, "name": "bn2a_branch2c"}, {"inbound_nodes": [[["res2a_branch1", 0, 0, {}]]], "class_name": "BatchNormalization", "config": {"gamma_initializer": {"class_name": "Ones", "config": {"dtype": "float32"}}, "name": "bn2a_branch1", "beta_constraint": null, "momentum": 0.99, "scale": true, "center": true, "dtype": "float32", "axis": [3], "moving_mean_initializer": {"class_name": "Zeros", "config": {"dtype": "float32"}}, "beta_initializer": {"class_name": "Zeros", "config": {"dtype": "float32"}}, "gamma_regularizer": null, "gamma_constraint": null, "moving_variance_initializer": {"class_name": "Ones", "config": {"dtype": "float32"}}, "beta_regularizer": null, "trainable": true, "epsilon": 0.001}, "name": "bn2a_branch1"}, {"inbound_nodes": [[["bn2a_branch2c", 0, 0, {}], ["bn2a_branch1", 0, 0, {}]]], "class_name": "Add", "config": {"dtype": "float32", "trainable": true, "name": "add"}, "name": "add"}, {"inbound_nodes": [[["add", 0, 0, {}]]], "class_name": "Activation", "config": {"dtype": "float32", "trainable": true, "activation": "relu", "name": "activation_3"}, "name": "activation_3"}, {"inbound_nodes": [[["activation_3", 0, 0, {}]]], "class_name": "Conv2D", "config": {"kernel_constraint": null, "activity_regularizer": null, "kernel_initializer": {"class_name": "VarianceScaling", "config": {"dtype": "float32", "mode": "fan_avg", "distribution": "uniform", "scale": 1.0, "seed": null}}, "name": "res2b_branch2a", "dtype": "float32", "trainable": true, "bias_initializer": {"class_name": "Zeros", "config": {"dtype": "float32"}}, "bias_constraint": null, "strides": [1, 1], "data_format": "channels_last", "filters": 64, "dilation_rate": [1, 1], "kernel_regularizer": null, "use_bias": true, "bias_regularizer": null, "activation": "linear", "kernel_size": [1, 1], "padding": "valid"}, "name": "res2b_branch2a"}, {"inbound_nodes": [[["res2b_branch2a", 0, 0, {}]]], "class_name": "BatchNormalization", "config": {"gamma_initializer": {"class_name": "Ones", "config": {"dtype": "float32"}}, "name": "bn2b_branch2a", "beta_constraint": null, "momentum": 0.99, "scale": true, "center": true, "dtype": "float32", "axis": [3], "moving_mean_initializer": {"class_name": "Zeros", "config": {"dtype": "float32"}}, "beta_initializer": {"class_name": "Zeros", "config": {"dtype": "float32"}}, "gamma_regularizer": null, "gamma_constraint": null, "moving_variance_initializer": {"class_name": "Ones", "config": {"dtype": "float32"}}, "beta_regularizer": null, "trainable": true, "epsilon": 0.001}, "name": "bn2b_branch2a"}, {"inbound_nodes": [[["bn2b_branch2a", 0, 0, {}]]], "class_name": "Activation", "config": {"dtype": "float32", "trainable": true, "activation": "relu", "name": "activation_4"}, "name": "activation_4"}, {"inbound_nodes": [[["activation_4", 0, 0, {}]]], "class_name": "Conv2D", "config": {"kernel_constraint": null, "activity_regularizer": null, "kernel_initializer": {"class_name": "VarianceScaling", "config": {"dtype": "float32", "mode": "fan_avg", "distribution": "uniform", "scale": 1.0, "seed": null}}, "name": "res2b_branch2b", "dtype": "float32", "trainable": true, "bias_initializer": {"class_name": "Zeros", "config": {"dtype": "float32"}}, "bias_constraint": null, "strides": [1, 1], "data_format": "channels_last", "filters": 64, "dilation_rate": [1, 1], "kernel_regularizer": null, "use_bias": true, "bias_regularizer": null, "activation": "linear", "kernel_size": [3, 3], "padding": "same"}, "name": "res2b_branch2b"}, {"inbound_nodes": [[["res2b_branch2b", 0, 0, {}]]], "class_name": "BatchNormalization", "config": {"gamma_initializer": {"class_name": "Ones", "config": {"dtype": "float32"}}, "name": "bn2b_branch2b", "beta_constraint": null, "momentum": 0.99, "scale": true, "center": true, "dtype": "float32", "axis": [3], "moving_mean_initializer": {"class_name": "Zeros", "config": {"dtype": "float32"}}, "beta_initializer": {"class_name": "Zeros", "config": {"dtype": "float32"}}, "gamma_regularizer": null, "gamma_constraint": null, "moving_variance_initializer": {"class_name": "Ones", "config": {"dtype": "float32"}}, "beta_regularizer": null, "trainable": true, "epsilon": 0.001}, "name": "bn2b_branch2b"}, {"inbound_nodes": [[["bn2b_branch2b", 0, 0, {}]]], "class_name": "Activation", "config": {"dtype": "float32", "trainable": true, "activation": "relu", "name": "activation_5"}, "name": "activation_5"}, {"inbound_nodes": [[["activation_5", 0, 0, {}]]], "class_name": "Conv2D", "config": {"kernel_constraint": null, "activity_regularizer": null, "kernel_initializer": {"class_name": "VarianceScaling", "config": {"dtype": "float32", "mode": "fan_avg", "distribution": "uniform", "scale": 1.0, "seed": null}}, "name": "res2b_branch2c", "dtype": "float32", "trainable": true, "bias_initializer": {"class_name": "Zeros", "config": {"dtype": "float32"}}, "bias_constraint": null, "strides": [1, 1], "data_format": "channels_last", "filters": 256, "dilation_rate": [1, 1], "kernel_regularizer": null, "use_bias": true, "bias_regularizer": null, "activation": "linear", "kernel_size": [1, 1], "padding": "valid"}, "name": "res2b_branch2c"}, {"inbound_nodes": [[["res2b_branch2c", 0, 0, {}]]], "class_name": "BatchNormalization", "config": {"gamma_initializer": {"class_name": "Ones", "config": {"dtype": "float32"}}, "name": "bn2b_branch2c", "beta_constraint": null, "momentum": 0.99, "scale": true, "center": true, "dtype": "float32", "axis": [3], "moving_mean_initializer": {"class_name": "Zeros", "config": {"dtype": "float32"}}, "beta_initializer": {"class_name": "Zeros", "config": {"dtype": "float32"}}, "gamma_regularizer": null, "gamma_constraint": null, "moving_variance_initializer": {"class_name": "Ones", "config": {"dtype": "float32"}}, "beta_regularizer": null, "trainable": true, "epsilon": 0.001}, "name": "bn2b_branch2c"}, {"inbound_nodes": [[["bn2b_branch2c", 0, 0, {}], ["activation_3", 0, 0, {}]]], "class_name": "Add", "config": {"dtype": "float32", "trainable": true, "name": "add_1"}, "name": "add_1"}, {"inbound_nodes": [[["add_1", 0, 0, {}]]], "class_name": "Activation", "config": {"dtype": "float32", "trainable": true, "activation": "relu", "name": "activation_6"}, "name": "activation_6"}, {"inbound_nodes": [[["activation_6", 0, 0, {}]]], "class_name": "Conv2D", "config": {"kernel_constraint": null, "activity_regularizer": null, "kernel_initializer": {"class_name": "VarianceScaling", "config": {"dtype": "float32", "mode": "fan_avg", "distribution": "uniform", "scale": 1.0, "seed": null}}, "name": "res2c_branch2a", "dtype": "float32", "trainable": true, "bias_initializer": {"class_name": "Zeros", "config": {"dtype": "float32"}}, "bias_constraint": null, "strides": [1, 1], "data_format": "channels_last", "filters": 64, "dilation_rate": [1, 1], "kernel_regularizer": null, "use_bias": true, "bias_regularizer": null, "activation": "linear", "kernel_size": [1, 1], "padding": "valid"}, "name": "res2c_branch2a"}, {"inbound_nodes": [[["res2c_branch2a", 0, 0, {}]]], "class_name": "BatchNormalization", "config": {"gamma_initializer": {"class_name": "Ones", "config": {"dtype": "float32"}}, "name": "bn2c_branch2a", "beta_constraint": null, "momentum": 0.99, "scale": true, "center": true, "dtype": "float32", "axis": [3], "moving_mean_initializer": {"class_name": "Zeros", "config": {"dtype": "float32"}}, "beta_initializer": {"class_name": "Zeros", "config": {"dtype": "float32"}}, "gamma_regularizer": null, "gamma_constraint": null, "moving_variance_initializer": {"class_name": "Ones", "config": {"dtype": "float32"}}, "beta_regularizer": null, "trainable": true, "epsilon": 0.001}, "name": "bn2c_branch2a"}, {"inbound_nodes": [[["bn2c_branch2a", 0, 0, {}]]], "class_name": "Activation", "config": {"dtype": "float32", "trainable": true, "activation": "relu", "name": "activation_7"}, "name": "activation_7"}, {"inbound_nodes": [[["activation_7", 0, 0, {}]]], "class_name": "Conv2D", "config": {"kernel_constraint": null, "activity_regularizer": null, "kernel_initializer": {"class_name": "VarianceScaling", "config": {"dtype": "float32", "mode": "fan_avg", "distribution": "uniform", "scale": 1.0, "seed": null}}, "name": "res2c_branch2b", "dtype": "float32", "trainable": true, "bias_initializer": {"class_name": "Zeros", "config": {"dtype": "float32"}}, "bias_constraint": null, "strides": [1, 1], "data_format": "channels_last", "filters": 64, "dilation_rate": [1, 1], "kernel_regularizer": null, "use_bias": true, "bias_regularizer": null, "activation": "linear", "kernel_size": [3, 3], "padding": "same"}, "name": "res2c_branch2b"}, {"inbound_nodes": [[["res2c_branch2b", 0, 0, {}]]], "class_name": "BatchNormalization", "config": {"gamma_initializer": {"class_name": "Ones", "config": {"dtype": "float32"}}, "name": "bn2c_branch2b", "beta_constraint": null, "momentum": 0.99, "scale": true, "center": true, "dtype": "float32", "axis": [3], "moving_mean_initializer": {"class_name": "Zeros", "config": {"dtype": "float32"}}, "beta_initializer": {"class_name": "Zeros", "config": {"dtype": "float32"}}, "gamma_regularizer": null, "gamma_constraint": null, "moving_variance_initializer": {"class_name": "Ones", "config": {"dtype": "float32"}}, "beta_regularizer": null, "trainable": true, "epsilon": 0.001}, "name": "bn2c_branch2b"}, {"inbound_nodes": [[["bn2c_branch2b", 0, 0, {}]]], "class_name": "Activation", "config": {"dtype": "float32", "trainable": true, "activation": "relu", "name": "activation_8"}, "name": "activation_8"}, {"inbound_nodes": [[["activation_8", 0, 0, {}]]], "class_name": "Conv2D", "config": {"kernel_constraint": null, "activity_regularizer": null, "kernel_initializer": {"class_name": "VarianceScaling", "config": {"dtype": "float32", "mode": "fan_avg", "distribution": "uniform", "scale": 1.0, "seed": null}}, "name": "res2c_branch2c", "dtype": "float32", "trainable": true, "bias_initializer": {"class_name": "Zeros", "config": {"dtype": "float32"}}, "bias_constraint": null, "strides": [1, 1], "data_format": "channels_last", "filters": 256, "dilation_rate": [1, 1], "kernel_regularizer": null, "use_bias": true, "bias_regularizer": null, "activation": "linear", "kernel_size": [1, 1], "padding": "valid"}, "name": "res2c_branch2c"}, {"inbound_nodes": [[["res2c_branch2c", 0, 0, {}]]], "class_name": "BatchNormalization", "config": {"gamma_initializer": {"class_name": "Ones", "config": {"dtype": "float32"}}, "name": "bn2c_branch2c", "beta_constraint": null, "momentum": 0.99, "scale": true, "center": true, "dtype": "float32", "axis": [3], "moving_mean_initializer": {"class_name": "Zeros", "config": {"dtype": "float32"}}, "beta_initializer": {"class_name": "Zeros", "config": {"dtype": "float32"}}, "gamma_regularizer": null, "gamma_constraint": null, "moving_variance_initializer": {"class_name": "Ones", "config": {"dtype": "float32"}}, "beta_regularizer": null, "trainable": true, "epsilon": 0.001}, "name": "bn2c_branch2c"}, {"inbound_nodes": [[["bn2c_branch2c", 0, 0, {}], ["activation_6", 0, 0, {}]]], "class_name": "Add", "config": {"dtype": "float32", "trainable": true, "name": "add_2"}, "name": "add_2"}, {"inbound_nodes": [[["add_2", 0, 0, {}]]], "class_name": "Activation", "config": {"dtype": "float32", "trainable": true, "activation": "relu", "name": "activation_9"}, "name": "activation_9"}, {"inbound_nodes": [[["activation_9", 0, 0, {}]]], "class_name": "Conv2D", "config": {"kernel_constraint": null, "activity_regularizer": null, "kernel_initializer": {"class_name": "VarianceScaling", "config": {"dtype": "float32", "mode": "fan_avg", "distribution": "uniform", "scale": 1.0, "seed": null}}, "name": "res3a_branch2a", "dtype": "float32", "trainable": true, "bias_initializer": {"class_name": "Zeros", "config": {"dtype": "float32"}}, "bias_constraint": null, "strides": [2, 2], "data_format": "channels_last", "filters": 128, "dilation_rate": [1, 1], "kernel_regularizer": null, "use_bias": true, "bias_regularizer": null, "activation": "linear", "kernel_size": [1, 1], "padding": "valid"}, "name": "res3a_branch2a"}, {"inbound_nodes": [[["res3a_branch2a", 0, 0, {}]]], "class_name": "BatchNormalization", "config": {"gamma_initializer": {"class_name": "Ones", "config": {"dtype": "float32"}}, "name": "bn3a_branch2a", "beta_constraint": null, "momentum": 0.99, "scale": true, "center": true, "dtype": "float32", "axis": [3], "moving_mean_initializer": {"class_name": "Zeros", "config": {"dtype": "float32"}}, "beta_initializer": {"class_name": "Zeros", "config": {"dtype": "float32"}}, "gamma_regularizer": null, "gamma_constraint": null, "moving_variance_initializer": {"class_name": "Ones", "config": {"dtype": "float32"}}, "beta_regularizer": null, "trainable": true, "epsilon": 0.001}, "name": "bn3a_branch2a"}, {"inbound_nodes": [[["bn3a_branch2a", 0, 0, {}]]], "class_name": "Activation", "config": {"dtype": "float32", "trainable": true, "activation": "relu", "name": "activation_10"}, "name": "activation_10"}, {"inbound_nodes": [[["activation_10", 0, 0, {}]]], "class_name": "Conv2D", "config": {"kernel_constraint": null, "activity_regularizer": null, "kernel_initializer": {"class_name": "VarianceScaling", "config": {"dtype": "float32", "mode": "fan_avg", "distribution": "uniform", "scale": 1.0, "seed": null}}, "name": "res3a_branch2b", "dtype": "float32", "trainable": true, "bias_initializer": {"class_name": "Zeros", "config": {"dtype": "float32"}}, "bias_constraint": null, "strides": [1, 1], "data_format": "channels_last", "filters": 128, "dilation_rate": [1, 1], "kernel_regularizer": null, "use_bias": true, "bias_regularizer": null, "activation": "linear", "kernel_size": [3, 3], "padding": "same"}, "name": "res3a_branch2b"}, {"inbound_nodes": [[["res3a_branch2b", 0, 0, {}]]], "class_name": "BatchNormalization", "config": {"gamma_initializer": {"class_name": "Ones", "config": {"dtype": "float32"}}, "name": "bn3a_branch2b", "beta_constraint": null, "momentum": 0.99, "scale": true, "center": true, "dtype": "float32", "axis": [3], "moving_mean_initializer": {"class_name": "Zeros", "config": {"dtype": "float32"}}, "beta_initializer": {"class_name": "Zeros", "config": {"dtype": "float32"}}, "gamma_regularizer": null, "gamma_constraint": null, "moving_variance_initializer": {"class_name": "Ones", "config": {"dtype": "float32"}}, "beta_regularizer": null, "trainable": true, "epsilon": 0.001}, "name": "bn3a_branch2b"}, {"inbound_nodes": [[["bn3a_branch2b", 0, 0, {}]]], "class_name": "Activation", "config": {"dtype": "float32", "trainable": true, "activation": "relu", "name": "activation_11"}, "name": "activation_11"}, {"inbound_nodes": [[["activation_11", 0, 0, {}]]], "class_name": "Conv2D", "config": {"kernel_constraint": null, "activity_regularizer": null, "kernel_initializer": {"class_name": "VarianceScaling", "config": {"dtype": "float32", "mode": "fan_avg", "distribution": "uniform", "scale": 1.0, "seed": null}}, "name": "res3a_branch2c", "dtype": "float32", "trainable": true, "bias_initializer": {"class_name": "Zeros", "config": {"dtype": "float32"}}, "bias_constraint": null, "strides": [1, 1], "data_format": "channels_last", "filters": 512, "dilation_rate": [1, 1], "kernel_regularizer": null, "use_bias": true, "bias_regularizer": null, "activation": "linear", "kernel_size": [1, 1], "padding": "valid"}, "name": "res3a_branch2c"}, {"inbound_nodes": [[["activation_9", 0, 0, {}]]], "class_name": "Conv2D", "config": {"kernel_constraint": null, "activity_regularizer": null, "kernel_initializer": {"class_name": "VarianceScaling", "config": {"dtype": "float32", "mode": "fan_avg", "distribution": "uniform", "scale": 1.0, "seed": null}}, "name": "res3a_branch1", "dtype": "float32", "trainable": true, "bias_initializer": {"class_name": "Zeros", "config": {"dtype": "float32"}}, "bias_constraint": null, "strides": [2, 2], "data_format": "channels_last", "filters": 512, "dilation_rate": [1, 1], "kernel_regularizer": null, "use_bias": true, "bias_regularizer": null, "activation": "linear", "kernel_size": [1, 1], "padding": "valid"}, "name": "res3a_branch1"}, {"inbound_nodes": [[["res3a_branch2c", 0, 0, {}]]], "class_name": "BatchNormalization", "config": {"gamma_initializer": {"class_name": "Ones", "config": {"dtype": "float32"}}, "name": "bn3a_branch2c", "beta_constraint": null, "momentum": 0.99, "scale": true, "center": true, "dtype": "float32", "axis": [3], "moving_mean_initializer": {"class_name": "Zeros", "config": {"dtype": "float32"}}, "beta_initializer": {"class_name": "Zeros", "config": {"dtype": "float32"}}, "gamma_regularizer": null, "gamma_constraint": null, "moving_variance_initializer": {"class_name": "Ones", "config": {"dtype": "float32"}}, "beta_regularizer": null, "trainable": true, "epsilon": 0.001}, "name": "bn3a_branch2c"}, {"inbound_nodes": [[["res3a_branch1", 0, 0, {}]]], "class_name": "BatchNormalization", "config": {"gamma_initializer": {"class_name": "Ones", "config": {"dtype": "float32"}}, "name": "bn3a_branch1", "beta_constraint": null, "momentum": 0.99, "scale": true, "center": true, "dtype": "float32", "axis": [3], "moving_mean_initializer": {"class_name": "Zeros", "config": {"dtype": "float32"}}, "beta_initializer": {"class_name": "Zeros", "config": {"dtype": "float32"}}, "gamma_regularizer": null, "gamma_constraint": null, "moving_variance_initializer": {"class_name": "Ones", "config": {"dtype": "float32"}}, "beta_regularizer": null, "trainable": true, "epsilon": 0.001}, "name": "bn3a_branch1"}, {"inbound_nodes": [[["bn3a_branch2c", 0, 0, {}], ["bn3a_branch1", 0, 0, {}]]], "class_name": "Add", "config": {"dtype": "float32", "trainable": true, "name": "add_3"}, "name": "add_3"}, {"inbound_nodes": [[["add_3", 0, 0, {}]]], "class_name": "Activation", "config": {"dtype": "float32", "trainable": true, "activation": "relu", "name": "activation_12"}, "name": "activation_12"}, {"inbound_nodes": [[["activation_12", 0, 0, {}]]], "class_name": "Conv2D", "config": {"kernel_constraint": null, "activity_regularizer": null, "kernel_initializer": {"class_name": "VarianceScaling", "config": {"dtype": "float32", "mode": "fan_avg", "distribution": "uniform", "scale": 1.0, "seed": null}}, "name": "res3b_branch2a", "dtype": "float32", "trainable": true, "bias_initializer": {"class_name": "Zeros", "config": {"dtype": "float32"}}, "bias_constraint": null, "strides": [1, 1], "data_format": "channels_last", "filters": 128, "dilation_rate": [1, 1], "kernel_regularizer": null, "use_bias": true, "bias_regularizer": null, "activation": "linear", "kernel_size": [1, 1], "padding": "valid"}, "name": "res3b_branch2a"}, {"inbound_nodes": [[["res3b_branch2a", 0, 0, {}]]], "class_name": "BatchNormalization", "config": {"gamma_initializer": {"class_name": "Ones", "config": {"dtype": "float32"}}, "name": "bn3b_branch2a", "beta_constraint": null, "momentum": 0.99, "scale": true, "center": true, "dtype": "float32", "axis": [3], "moving_mean_initializer": {"class_name": "Zeros", "config": {"dtype": "float32"}}, "beta_initializer": {"class_name": "Zeros", "config": {"dtype": "float32"}}, "gamma_regularizer": null, "gamma_constraint": null, "moving_variance_initializer": {"class_name": "Ones", "config": {"dtype": "float32"}}, "beta_regularizer": null, "trainable": true, "epsilon": 0.001}, "name": "bn3b_branch2a"}, {"inbound_nodes": [[["bn3b_branch2a", 0, 0, {}]]], "class_name": "Activation", "config": {"dtype": "float32", "trainable": true, "activation": "relu", "name": "activation_13"}, "name": "activation_13"}, {"inbound_nodes": [[["activation_13", 0, 0, {}]]], "class_name": "Conv2D", "config": {"kernel_constraint": null, "activity_regularizer": null, "kernel_initializer": {"class_name": "VarianceScaling", "config": {"dtype": "float32", "mode": "fan_avg", "distribution": "uniform", "scale": 1.0, "seed": null}}, "name": "res3b_branch2b", "dtype": "float32", "trainable": true, "bias_initializer": {"class_name": "Zeros", "config": {"dtype": "float32"}}, "bias_constraint": null, "strides": [1, 1], "data_format": "channels_last", "filters": 128, "dilation_rate": [1, 1], "kernel_regularizer": null, "use_bias": true, "bias_regularizer": null, "activation": "linear", "kernel_size": [3, 3], "padding": "same"}, "name": "res3b_branch2b"}, {"inbound_nodes": [[["res3b_branch2b", 0, 0, {}]]], "class_name": "BatchNormalization", "config": {"gamma_initializer": {"class_name": "Ones", "config": {"dtype": "float32"}}, "name": "bn3b_branch2b", "beta_constraint": null, "momentum": 0.99, "scale": true, "center": true, "dtype": "float32", "axis": [3], "moving_mean_initializer": {"class_name": "Zeros", "config": {"dtype": "float32"}}, "beta_initializer": {"class_name": "Zeros", "config": {"dtype": "float32"}}, "gamma_regularizer": null, "gamma_constraint": null, "moving_variance_initializer": {"class_name": "Ones", "config": {"dtype": "float32"}}, "beta_regularizer": null, "trainable": true, "epsilon": 0.001}, "name": "bn3b_branch2b"}, {"inbound_nodes": [[["bn3b_branch2b", 0, 0, {}]]], "class_name": "Activation", "config": {"dtype": "float32", "trainable": true, "activation": "relu", "name": "activation_14"}, "name": "activation_14"}, {"inbound_nodes": [[["activation_14", 0, 0, {}]]], "class_name": "Conv2D", "config": {"kernel_constraint": null, "activity_regularizer": null, "kernel_initializer": {"class_name": "VarianceScaling", "config": {"dtype": "float32", "mode": "fan_avg", "distribution": "uniform", "scale": 1.0, "seed": null}}, "name": "res3b_branch2c", "dtype": "float32", "trainable": true, "bias_initializer": {"class_name": "Zeros", "config": {"dtype": "float32"}}, "bias_constraint": null, "strides": [1, 1], "data_format": "channels_last", "filters": 512, "dilation_rate": [1, 1], "kernel_regularizer": null, "use_bias": true, "bias_regularizer": null, "activation": "linear", "kernel_size": [1, 1], "padding": "valid"}, "name": "res3b_branch2c"}, {"inbound_nodes": [[["res3b_branch2c", 0, 0, {}]]], "class_name": "BatchNormalization", "config": {"gamma_initializer": {"class_name": "Ones", "config": {"dtype": "float32"}}, "name": "bn3b_branch2c", "beta_constraint": null, "momentum": 0.99, "scale": true, "center": true, "dtype": "float32", "axis": [3], "moving_mean_initializer": {"class_name": "Zeros", "config": {"dtype": "float32"}}, "beta_initializer": {"class_name": "Zeros", "config": {"dtype": "float32"}}, "gamma_regularizer": null, "gamma_constraint": null, "moving_variance_initializer": {"class_name": "Ones", "config": {"dtype": "float32"}}, "beta_regularizer": null, "trainable": true, "epsilon": 0.001}, "name": "bn3b_branch2c"}, {"inbound_nodes": [[["bn3b_branch2c", 0, 0, {}], ["activation_12", 0, 0, {}]]], "class_name": "Add", "config": {"dtype": "float32", "trainable": true, "name": "add_4"}, "name": "add_4"}, {"inbound_nodes": [[["add_4", 0, 0, {}]]], "class_name": "Activation", "config": {"dtype": "float32", "trainable": true, "activation": "relu", "name": "activation_15"}, "name": "activation_15"}, {"inbound_nodes": [[["activation_15", 0, 0, {}]]], "class_name": "Conv2D", "config": {"kernel_constraint": null, "activity_regularizer": null, "kernel_initializer": {"class_name": "VarianceScaling", "config": {"dtype": "float32", "mode": "fan_avg", "distribution": "uniform", "scale": 1.0, "seed": null}}, "name": "res3c_branch2a", "dtype": "float32", "trainable": true, "bias_initializer": {"class_name": "Zeros", "config": {"dtype": "float32"}}, "bias_constraint": null, "strides": [1, 1], "data_format": "channels_last", "filters": 128, "dilation_rate": [1, 1], "kernel_regularizer": null, "use_bias": true, "bias_regularizer": null, "activation": "linear", "kernel_size": [1, 1], "padding": "valid"}, "name": "res3c_branch2a"}, {"inbound_nodes": [[["res3c_branch2a", 0, 0, {}]]], "class_name": "BatchNormalization", "config": {"gamma_initializer": {"class_name": "Ones", "config": {"dtype": "float32"}}, "name": "bn3c_branch2a", "beta_constraint": null, "momentum": 0.99, "scale": true, "center": true, "dtype": "float32", "axis": [3], "moving_mean_initializer": {"class_name": "Zeros", "config": {"dtype": "float32"}}, "beta_initializer": {"class_name": "Zeros", "config": {"dtype": "float32"}}, "gamma_regularizer": null, "gamma_constraint": null, "moving_variance_initializer": {"class_name": "Ones", "config": {"dtype": "float32"}}, "beta_regularizer": null, "trainable": true, "epsilon": 0.001}, "name": "bn3c_branch2a"}, {"inbound_nodes": [[["bn3c_branch2a", 0, 0, {}]]], "class_name": "Activation", "config": {"dtype": "float32", "trainable": true, "activation": "relu", "name": "activation_16"}, "name": "activation_16"}, {"inbound_nodes": [[["activation_16", 0, 0, {}]]], "class_name": "Conv2D", "config": {"kernel_constraint": null, "activity_regularizer": null, "kernel_initializer": {"class_name": "VarianceScaling", "config": {"dtype": "float32", "mode": "fan_avg", "distribution": "uniform", "scale": 1.0, "seed": null}}, "name": "res3c_branch2b", "dtype": "float32", "trainable": true, "bias_initializer": {"class_name": "Zeros", "config": {"dtype": "float32"}}, "bias_constraint": null, "strides": [1, 1], "data_format": "channels_last", "filters": 128, "dilation_rate": [1, 1], "kernel_regularizer": null, "use_bias": true, "bias_regularizer": null, "activation": "linear", "kernel_size": [3, 3], "padding": "same"}, "name": "res3c_branch2b"}, {"inbound_nodes": [[["res3c_branch2b", 0, 0, {}]]], "class_name": "BatchNormalization", "config": {"gamma_initializer": {"class_name": "Ones", "config": {"dtype": "float32"}}, "name": "bn3c_branch2b", "beta_constraint": null, "momentum": 0.99, "scale": true, "center": true, "dtype": "float32", "axis": [3], "moving_mean_initializer": {"class_name": "Zeros", "config": {"dtype": "float32"}}, "beta_initializer": {"class_name": "Zeros", "config": {"dtype": "float32"}}, "gamma_regularizer": null, "gamma_constraint": null, "moving_variance_initializer": {"class_name": "Ones", "config": {"dtype": "float32"}}, "beta_regularizer": null, "trainable": true, "epsilon": 0.001}, "name": "bn3c_branch2b"}, {"inbound_nodes": [[["bn3c_branch2b", 0, 0, {}]]], "class_name": "Activation", "config": {"dtype": "float32", "trainable": true, "activation": "relu", "name": "activation_17"}, "name": "activation_17"}, {"inbound_nodes": [[["activation_17", 0, 0, {}]]], "class_name": "Conv2D", "config": {"kernel_constraint": null, "activity_regularizer": null, "kernel_initializer": {"class_name": "VarianceScaling", "config": {"dtype": "float32", "mode": "fan_avg", "distribution": "uniform", "scale": 1.0, "seed": null}}, "name": "res3c_branch2c", "dtype": "float32", "trainable": true, "bias_initializer": {"class_name": "Zeros", "config": {"dtype": "float32"}}, "bias_constraint": null, "strides": [1, 1], "data_format": "channels_last", "filters": 512, "dilation_rate": [1, 1], "kernel_regularizer": null, "use_bias": true, "bias_regularizer": null, "activation": "linear", "kernel_size": [1, 1], "padding": "valid"}, "name": "res3c_branch2c"}, {"inbound_nodes": [[["res3c_branch2c", 0, 0, {}]]], "class_name": "BatchNormalization", "config": {"gamma_initializer": {"class_name": "Ones", "config": {"dtype": "float32"}}, "name": "bn3c_branch2c", "beta_constraint": null, "momentum": 0.99, "scale": true, "center": true, "dtype": "float32", "axis": [3], "moving_mean_initializer": {"class_name": "Zeros", "config": {"dtype": "float32"}}, "beta_initializer": {"class_name": "Zeros", "config": {"dtype": "float32"}}, "gamma_regularizer": null, "gamma_constraint": null, "moving_variance_initializer": {"class_name": "Ones", "config": {"dtype": "float32"}}, "beta_regularizer": null, "trainable": true, "epsilon": 0.001}, "name": "bn3c_branch2c"}, {"inbound_nodes": [[["bn3c_branch2c", 0, 0, {}], ["activation_15", 0, 0, {}]]], "class_name": "Add", "config": {"dtype": "float32", "trainable": true, "name": "add_5"}, "name": "add_5"}, {"inbound_nodes": [[["add_5", 0, 0, {}]]], "class_name": "Activation", "config": {"dtype": "float32", "trainable": true, "activation": "relu", "name": "activation_18"}, "name": "activation_18"}, {"inbound_nodes": [[["activation_18", 0, 0, {}]]], "class_name": "Conv2D", "config": {"kernel_constraint": null, "activity_regularizer": null, "kernel_initializer": {"class_name": "VarianceScaling", "config": {"dtype": "float32", "mode": "fan_avg", "distribution": "uniform", "scale": 1.0, "seed": null}}, "name": "res3d_branch2a", "dtype": "float32", "trainable": true, "bias_initializer": {"class_name": "Zeros", "config": {"dtype": "float32"}}, "bias_constraint": null, "strides": [1, 1], "data_format": "channels_last", "filters": 128, "dilation_rate": [1, 1], "kernel_regularizer": null, "use_bias": true, "bias_regularizer": null, "activation": "linear", "kernel_size": [1, 1], "padding": "valid"}, "name": "res3d_branch2a"}, {"inbound_nodes": [[["res3d_branch2a", 0, 0, {}]]], "class_name": "BatchNormalization", "config": {"gamma_initializer": {"class_name": "Ones", "config": {"dtype": "float32"}}, "name": "bn3d_branch2a", "beta_constraint": null, "momentum": 0.99, "scale": true, "center": true, "dtype": "float32", "axis": [3], "moving_mean_initializer": {"class_name": "Zeros", "config": {"dtype": "float32"}}, "beta_initializer": {"class_name": "Zeros", "config": {"dtype": "float32"}}, "gamma_regularizer": null, "gamma_constraint": null, "moving_variance_initializer": {"class_name": "Ones", "config": {"dtype": "float32"}}, "beta_regularizer": null, "trainable": true, "epsilon": 0.001}, "name": "bn3d_branch2a"}, {"inbound_nodes": [[["bn3d_branch2a", 0, 0, {}]]], "class_name": "Activation", "config": {"dtype": "float32", "trainable": true, "activation": "relu", "name": "activation_19"}, "name": "activation_19"}, {"inbound_nodes": [[["activation_19", 0, 0, {}]]], "class_name": "Conv2D", "config": {"kernel_constraint": null, "activity_regularizer": null, "kernel_initializer": {"class_name": "VarianceScaling", "config": {"dtype": "float32", "mode": "fan_avg", "distribution": "uniform", "scale": 1.0, "seed": null}}, "name": "res3d_branch2b", "dtype": "float32", "trainable": true, "bias_initializer": {"class_name": "Zeros", "config": {"dtype": "float32"}}, "bias_constraint": null, "strides": [1, 1], "data_format": "channels_last", "filters": 128, "dilation_rate": [1, 1], "kernel_regularizer": null, "use_bias": true, "bias_regularizer": null, "activation": "linear", "kernel_size": [3, 3], "padding": "same"}, "name": "res3d_branch2b"}, {"inbound_nodes": [[["res3d_branch2b", 0, 0, {}]]], "class_name": "BatchNormalization", "config": {"gamma_initializer": {"class_name": "Ones", "config": {"dtype": "float32"}}, "name": "bn3d_branch2b", "beta_constraint": null, "momentum": 0.99, "scale": true, "center": true, "dtype": "float32", "axis": [3], "moving_mean_initializer": {"class_name": "Zeros", "config": {"dtype": "float32"}}, "beta_initializer": {"class_name": "Zeros", "config": {"dtype": "float32"}}, "gamma_regularizer": null, "gamma_constraint": null, "moving_variance_initializer": {"class_name": "Ones", "config": {"dtype": "float32"}}, "beta_regularizer": null, "trainable": true, "epsilon": 0.001}, "name": "bn3d_branch2b"}, {"inbound_nodes": [[["bn3d_branch2b", 0, 0, {}]]], "class_name": "Activation", "config": {"dtype": "float32", "trainable": true, "activation": "relu", "name": "activation_20"}, "name": "activation_20"}, {"inbound_nodes": [[["activation_20", 0, 0, {}]]], "class_name": "Conv2D", "config": {"kernel_constraint": null, "activity_regularizer": null, "kernel_initializer": {"class_name": "VarianceScaling", "config": {"dtype": "float32", "mode": "fan_avg", "distribution": "uniform", "scale": 1.0, "seed": null}}, "name": "res3d_branch2c", "dtype": "float32", "trainable": true, "bias_initializer": {"class_name": "Zeros", "config": {"dtype": "float32"}}, "bias_constraint": null, "strides": [1, 1], "data_format": "channels_last", "filters": 512, "dilation_rate": [1, 1], "kernel_regularizer": null, "use_bias": true, "bias_regularizer": null, "activation": "linear", "kernel_size": [1, 1], "padding": "valid"}, "name": "res3d_branch2c"}, {"inbound_nodes": [[["res3d_branch2c", 0, 0, {}]]], "class_name": "BatchNormalization", "config": {"gamma_initializer": {"class_name": "Ones", "config": {"dtype": "float32"}}, "name": "bn3d_branch2c", "beta_constraint": null, "momentum": 0.99, "scale": true, "center": true, "dtype": "float32", "axis": [3], "moving_mean_initializer": {"class_name": "Zeros", "config": {"dtype": "float32"}}, "beta_initializer": {"class_name": "Zeros", "config": {"dtype": "float32"}}, "gamma_regularizer": null, "gamma_constraint": null, "moving_variance_initializer": {"class_name": "Ones", "config": {"dtype": "float32"}}, "beta_regularizer": null, "trainable": true, "epsilon": 0.001}, "name": "bn3d_branch2c"}, {"inbound_nodes": [[["bn3d_branch2c", 0, 0, {}], ["activation_18", 0, 0, {}]]], "class_name": "Add", "config": {"dtype": "float32", "trainable": true, "name": "add_6"}, "name": "add_6"}, {"inbound_nodes": [[["add_6", 0, 0, {}]]], "class_name": "Activation", "config": {"dtype": "float32", "trainable": true, "activation": "relu", "name": "activation_21"}, "name": "activation_21"}, {"inbound_nodes": [[["activation_21", 0, 0, {}]]], "class_name": "Conv2D", "config": {"kernel_constraint": null, "activity_regularizer": null, "kernel_initializer": {"class_name": "VarianceScaling", "config": {"dtype": "float32", "mode": "fan_avg", "distribution": "uniform", "scale": 1.0, "seed": null}}, "name": "res4a_branch2a", "dtype": "float32", "trainable": true, "bias_initializer": {"class_name": "Zeros", "config": {"dtype": "float32"}}, "bias_constraint": null, "strides": [2, 2], "data_format": "channels_last", "filters": 256, "dilation_rate": [1, 1], "kernel_regularizer": null, "use_bias": true, "bias_regularizer": null, "activation": "linear", "kernel_size": [1, 1], "padding": "valid"}, "name": "res4a_branch2a"}, {"inbound_nodes": [[["res4a_branch2a", 0, 0, {}]]], "class_name": "BatchNormalization", "config": {"gamma_initializer": {"class_name": "Ones", "config": {"dtype": "float32"}}, "name": "bn4a_branch2a", "beta_constraint": null, "momentum": 0.99, "scale": true, "center": true, "dtype": "float32", "axis": [3], "moving_mean_initializer": {"class_name": "Zeros", "config": {"dtype": "float32"}}, "beta_initializer": {"class_name": "Zeros", "config": {"dtype": "float32"}}, "gamma_regularizer": null, "gamma_constraint": null, "moving_variance_initializer": {"class_name": "Ones", "config": {"dtype": "float32"}}, "beta_regularizer": null, "trainable": true, "epsilon": 0.001}, "name": "bn4a_branch2a"}, {"inbound_nodes": [[["bn4a_branch2a", 0, 0, {}]]], "class_name": "Activation", "config": {"dtype": "float32", "trainable": true, "activation": "relu", "name": "activation_22"}, "name": "activation_22"}, {"inbound_nodes": [[["activation_22", 0, 0, {}]]], "class_name": "Conv2D", "config": {"kernel_constraint": null, "activity_regularizer": null, "kernel_initializer": {"class_name": "VarianceScaling", "config": {"dtype": "float32", "mode": "fan_avg", "distribution": "uniform", "scale": 1.0, "seed": null}}, "name": "res4a_branch2b", "dtype": "float32", "trainable": true, "bias_initializer": {"class_name": "Zeros", "config": {"dtype": "float32"}}, "bias_constraint": null, "strides": [1, 1], "data_format": "channels_last", "filters": 256, "dilation_rate": [1, 1], "kernel_regularizer": null, "use_bias": true, "bias_regularizer": null, "activation": "linear", "kernel_size": [3, 3], "padding": "same"}, "name": "res4a_branch2b"}, {"inbound_nodes": [[["res4a_branch2b", 0, 0, {}]]], "class_name": "BatchNormalization", "config": {"gamma_initializer": {"class_name": "Ones", "config": {"dtype": "float32"}}, "name": "bn4a_branch2b", "beta_constraint": null, "momentum": 0.99, "scale": true, "center": true, "dtype": "float32", "axis": [3], "moving_mean_initializer": {"class_name": "Zeros", "config": {"dtype": "float32"}}, "beta_initializer": {"class_name": "Zeros", "config": {"dtype": "float32"}}, "gamma_regularizer": null, "gamma_constraint": null, "moving_variance_initializer": {"class_name": "Ones", "config": {"dtype": "float32"}}, "beta_regularizer": null, "trainable": true, "epsilon": 0.001}, "name": "bn4a_branch2b"}, {"inbound_nodes": [[["bn4a_branch2b", 0, 0, {}]]], "class_name": "Activation", "config": {"dtype": "float32", "trainable": true, "activation": "relu", "name": "activation_23"}, "name": "activation_23"}, {"inbound_nodes": [[["activation_23", 0, 0, {}]]], "class_name": "Conv2D", "config": {"kernel_constraint": null, "activity_regularizer": null, "kernel_initializer": {"class_name": "VarianceScaling", "config": {"dtype": "float32", "mode": "fan_avg", "distribution": "uniform", "scale": 1.0, "seed": null}}, "name": "res4a_branch2c", "dtype": "float32", "trainable": true, "bias_initializer": {"class_name": "Zeros", "config": {"dtype": "float32"}}, "bias_constraint": null, "strides": [1, 1], "data_format": "channels_last", "filters": 1024, "dilation_rate": [1, 1], "kernel_regularizer": null, "use_bias": true, "bias_regularizer": null, "activation": "linear", "kernel_size": [1, 1], "padding": "valid"}, "name": "res4a_branch2c"}, {"inbound_nodes": [[["activation_21", 0, 0, {}]]], "class_name": "Conv2D", "config": {"kernel_constraint": null, "activity_regularizer": null, "kernel_initializer": {"class_name": "VarianceScaling", "config": {"dtype": "float32", "mode": "fan_avg", "distribution": "uniform", "scale": 1.0, "seed": null}}, "name": "res4a_branch1", "dtype": "float32", "trainable": true, "bias_initializer": {"class_name": "Zeros", "config": {"dtype": "float32"}}, "bias_constraint": null, "strides": [2, 2], "data_format": "channels_last", "filters": 1024, "dilation_rate": [1, 1], "kernel_regularizer": null, "use_bias": true, "bias_regularizer": null, "activation": "linear", "kernel_size": [1, 1], "padding": "valid"}, "name": "res4a_branch1"}, {"inbound_nodes": [[["res4a_branch2c", 0, 0, {}]]], "class_name": "BatchNormalization", "config": {"gamma_initializer": {"class_name": "Ones", "config": {"dtype": "float32"}}, "name": "bn4a_branch2c", "beta_constraint": null, "momentum": 0.99, "scale": true, "center": true, "dtype": "float32", "axis": [3], "moving_mean_initializer": {"class_name": "Zeros", "config": {"dtype": "float32"}}, "beta_initializer": {"class_name": "Zeros", "config": {"dtype": "float32"}}, "gamma_regularizer": null, "gamma_constraint": null, "moving_variance_initializer": {"class_name": "Ones", "config": {"dtype": "float32"}}, "beta_regularizer": null, "trainable": true, "epsilon": 0.001}, "name": "bn4a_branch2c"}, {"inbound_nodes": [[["res4a_branch1", 0, 0, {}]]], "class_name": "BatchNormalization", "config": {"gamma_initializer": {"class_name": "Ones", "config": {"dtype": "float32"}}, "name": "bn4a_branch1", "beta_constraint": null, "momentum": 0.99, "scale": true, "center": true, "dtype": "float32", "axis": [3], "moving_mean_initializer": {"class_name": "Zeros", "config": {"dtype": "float32"}}, "beta_initializer": {"class_name": "Zeros", "config": {"dtype": "float32"}}, "gamma_regularizer": null, "gamma_constraint": null, "moving_variance_initializer": {"class_name": "Ones", "config": {"dtype": "float32"}}, "beta_regularizer": null, "trainable": true, "epsilon": 0.001}, "name": "bn4a_branch1"}, {"inbound_nodes": [[["bn4a_branch2c", 0, 0, {}], ["bn4a_branch1", 0, 0, {}]]], "class_name": "Add", "config": {"dtype": "float32", "trainable": true, "name": "add_7"}, "name": "add_7"}, {"inbound_nodes": [[["add_7", 0, 0, {}]]], "class_name": "Activation", "config": {"dtype": "float32", "trainable": true, "activation": "relu", "name": "activation_24"}, "name": "activation_24"}, {"inbound_nodes": [[["activation_24", 0, 0, {}]]], "class_name": "Conv2D", "config": {"kernel_constraint": null, "activity_regularizer": null, "kernel_initializer": {"class_name": "VarianceScaling", "config": {"dtype": "float32", "mode": "fan_avg", "distribution": "uniform", "scale": 1.0, "seed": null}}, "name": "res4b_branch2a", "dtype": "float32", "trainable": true, "bias_initializer": {"class_name": "Zeros", "config": {"dtype": "float32"}}, "bias_constraint": null, "strides": [1, 1], "data_format": "channels_last", "filters": 256, "dilation_rate": [1, 1], "kernel_regularizer": null, "use_bias": true, "bias_regularizer": null, "activation": "linear", "kernel_size": [1, 1], "padding": "valid"}, "name": "res4b_branch2a"}, {"inbound_nodes": [[["res4b_branch2a", 0, 0, {}]]], "class_name": "BatchNormalization", "config": {"gamma_initializer": {"class_name": "Ones", "config": {"dtype": "float32"}}, "name": "bn4b_branch2a", "beta_constraint": null, "momentum": 0.99, "scale": true, "center": true, "dtype": "float32", "axis": [3], "moving_mean_initializer": {"class_name": "Zeros", "config": {"dtype": "float32"}}, "beta_initializer": {"class_name": "Zeros", "config": {"dtype": "float32"}}, "gamma_regularizer": null, "gamma_constraint": null, "moving_variance_initializer": {"class_name": "Ones", "config": {"dtype": "float32"}}, "beta_regularizer": null, "trainable": true, "epsilon": 0.001}, "name": "bn4b_branch2a"}, {"inbound_nodes": [[["bn4b_branch2a", 0, 0, {}]]], "class_name": "Activation", "config": {"dtype": "float32", "trainable": true, "activation": "relu", "name": "activation_25"}, "name": "activation_25"}, {"inbound_nodes": [[["activation_25", 0, 0, {}]]], "class_name": "Conv2D", "config": {"kernel_constraint": null, "activity_regularizer": null, "kernel_initializer": {"class_name": "VarianceScaling", "config": {"dtype": "float32", "mode": "fan_avg", "distribution": "uniform", "scale": 1.0, "seed": null}}, "name": "res4b_branch2b", "dtype": "float32", "trainable": true, "bias_initializer": {"class_name": "Zeros", "config": {"dtype": "float32"}}, "bias_constraint": null, "strides": [1, 1], "data_format": "channels_last", "filters": 256, "dilation_rate": [1, 1], "kernel_regularizer": null, "use_bias": true, "bias_regularizer": null, "activation": "linear", "kernel_size": [3, 3], "padding": "same"}, "name": "res4b_branch2b"}, {"inbound_nodes": [[["res4b_branch2b", 0, 0, {}]]], "class_name": "BatchNormalization", "config": {"gamma_initializer": {"class_name": "Ones", "config": {"dtype": "float32"}}, "name": "bn4b_branch2b", "beta_constraint": null, "momentum": 0.99, "scale": true, "center": true, "dtype": "float32", "axis": [3], "moving_mean_initializer": {"class_name": "Zeros", "config": {"dtype": "float32"}}, "beta_initializer": {"class_name": "Zeros", "config": {"dtype": "float32"}}, "gamma_regularizer": null, "gamma_constraint": null, "moving_variance_initializer": {"class_name": "Ones", "config": {"dtype": "float32"}}, "beta_regularizer": null, "trainable": true, "epsilon": 0.001}, "name": "bn4b_branch2b"}, {"inbound_nodes": [[["bn4b_branch2b", 0, 0, {}]]], "class_name": "Activation", "config": {"dtype": "float32", "trainable": true, "activation": "relu", "name": "activation_26"}, "name": "activation_26"}, {"inbound_nodes": [[["activation_26", 0, 0, {}]]], "class_name": "Conv2D", "config": {"kernel_constraint": null, "activity_regularizer": null, "kernel_initializer": {"class_name": "VarianceScaling", "config": {"dtype": "float32", "mode": "fan_avg", "distribution": "uniform", "scale": 1.0, "seed": null}}, "name": "res4b_branch2c", "dtype": "float32", "trainable": true, "bias_initializer": {"class_name": "Zeros", "config": {"dtype": "float32"}}, "bias_constraint": null, "strides": [1, 1], "data_format": "channels_last", "filters": 1024, "dilation_rate": [1, 1], "kernel_regularizer": null, "use_bias": true, "bias_regularizer": null, "activation": "linear", "kernel_size": [1, 1], "padding": "valid"}, "name": "res4b_branch2c"}, {"inbound_nodes": [[["res4b_branch2c", 0, 0, {}]]], "class_name": "BatchNormalization", "config": {"gamma_initializer": {"class_name": "Ones", "config": {"dtype": "float32"}}, "name": "bn4b_branch2c", "beta_constraint": null, "momentum": 0.99, "scale": true, "center": true, "dtype": "float32", "axis": [3], "moving_mean_initializer": {"class_name": "Zeros", "config": {"dtype": "float32"}}, "beta_initializer": {"class_name": "Zeros", "config": {"dtype": "float32"}}, "gamma_regularizer": null, "gamma_constraint": null, "moving_variance_initializer": {"class_name": "Ones", "config": {"dtype": "float32"}}, "beta_regularizer": null, "trainable": true, "epsilon": 0.001}, "name": "bn4b_branch2c"}, {"inbound_nodes": [[["bn4b_branch2c", 0, 0, {}], ["activation_24", 0, 0, {}]]], "class_name": "Add", "config": {"dtype": "float32", "trainable": true, "name": "add_8"}, "name": "add_8"}, {"inbound_nodes": [[["add_8", 0, 0, {}]]], "class_name": "Activation", "config": {"dtype": "float32", "trainable": true, "activation": "relu", "name": "activation_27"}, "name": "activation_27"}, {"inbound_nodes": [[["activation_27", 0, 0, {}]]], "class_name": "Conv2D", "config": {"kernel_constraint": null, "activity_regularizer": null, "kernel_initializer": {"class_name": "VarianceScaling", "config": {"dtype": "float32", "mode": "fan_avg", "distribution": "uniform", "scale": 1.0, "seed": null}}, "name": "res4c_branch2a", "dtype": "float32", "trainable": true, "bias_initializer": {"class_name": "Zeros", "config": {"dtype": "float32"}}, "bias_constraint": null, "strides": [1, 1], "data_format": "channels_last", "filters": 256, "dilation_rate": [1, 1], "kernel_regularizer": null, "use_bias": true, "bias_regularizer": null, "activation": "linear", "kernel_size": [1, 1], "padding": "valid"}, "name": "res4c_branch2a"}, {"inbound_nodes": [[["res4c_branch2a", 0, 0, {}]]], "class_name": "BatchNormalization", "config": {"gamma_initializer": {"class_name": "Ones", "config": {"dtype": "float32"}}, "name": "bn4c_branch2a", "beta_constraint": null, "momentum": 0.99, "scale": true, "center": true, "dtype": "float32", "axis": [3], "moving_mean_initializer": {"class_name": "Zeros", "config": {"dtype": "float32"}}, "beta_initializer": {"class_name": "Zeros", "config": {"dtype": "float32"}}, "gamma_regularizer": null, "gamma_constraint": null, "moving_variance_initializer": {"class_name": "Ones", "config": {"dtype": "float32"}}, "beta_regularizer": null, "trainable": true, "epsilon": 0.001}, "name": "bn4c_branch2a"}, {"inbound_nodes": [[["bn4c_branch2a", 0, 0, {}]]], "class_name": "Activation", "config": {"dtype": "float32", "trainable": true, "activation": "relu", "name": "activation_28"}, "name": "activation_28"}, {"inbound_nodes": [[["activation_28", 0, 0, {}]]], "class_name": "Conv2D", "config": {"kernel_constraint": null, "activity_regularizer": null, "kernel_initializer": {"class_name": "VarianceScaling", "config": {"dtype": "float32", "mode": "fan_avg", "distribution": "uniform", "scale": 1.0, "seed": null}}, "name": "res4c_branch2b", "dtype": "float32", "trainable": true, "bias_initializer": {"class_name": "Zeros", "config": {"dtype": "float32"}}, "bias_constraint": null, "strides": [1, 1], "data_format": "channels_last", "filters": 256, "dilation_rate": [1, 1], "kernel_regularizer": null, "use_bias": true, "bias_regularizer": null, "activation": "linear", "kernel_size": [3, 3], "padding": "same"}, "name": "res4c_branch2b"}, {"inbound_nodes": [[["res4c_branch2b", 0, 0, {}]]], "class_name": "BatchNormalization", "config": {"gamma_initializer": {"class_name": "Ones", "config": {"dtype": "float32"}}, "name": "bn4c_branch2b", "beta_constraint": null, "momentum": 0.99, "scale": true, "center": true, "dtype": "float32", "axis": [3], "moving_mean_initializer": {"class_name": "Zeros", "config": {"dtype": "float32"}}, "beta_initializer": {"class_name": "Zeros", "config": {"dtype": "float32"}}, "gamma_regularizer": null, "gamma_constraint": null, "moving_variance_initializer": {"class_name": "Ones", "config": {"dtype": "float32"}}, "beta_regularizer": null, "trainable": true, "epsilon": 0.001}, "name": "bn4c_branch2b"}, {"inbound_nodes": [[["bn4c_branch2b", 0, 0, {}]]], "class_name": "Activation", "config": {"dtype": "float32", "trainable": true, "activation": "relu", "name": "activation_29"}, "name": "activation_29"}, {"inbound_nodes": [[["activation_29", 0, 0, {}]]], "class_name": "Conv2D", "config": {"kernel_constraint": null, "activity_regularizer": null, "kernel_initializer": {"class_name": "VarianceScaling", "config": {"dtype": "float32", "mode": "fan_avg", "distribution": "uniform", "scale": 1.0, "seed": null}}, "name": "res4c_branch2c", "dtype": "float32", "trainable": true, "bias_initializer": {"class_name": "Zeros", "config": {"dtype": "float32"}}, "bias_constraint": null, "strides": [1, 1], "data_format": "channels_last", "filters": 1024, "dilation_rate": [1, 1], "kernel_regularizer": null, "use_bias": true, "bias_regularizer": null, "activation": "linear", "kernel_size": [1, 1], "padding": "valid"}, "name": "res4c_branch2c"}, {"inbound_nodes": [[["res4c_branch2c", 0, 0, {}]]], "class_name": "BatchNormalization", "config": {"gamma_initializer": {"class_name": "Ones", "config": {"dtype": "float32"}}, "name": "bn4c_branch2c", "beta_constraint": null, "momentum": 0.99, "scale": true, "center": true, "dtype": "float32", "axis": [3], "moving_mean_initializer": {"class_name": "Zeros", "config": {"dtype": "float32"}}, "beta_initializer": {"class_name": "Zeros", "config": {"dtype": "float32"}}, "gamma_regularizer": null, "gamma_constraint": null, "moving_variance_initializer": {"class_name": "Ones", "config": {"dtype": "float32"}}, "beta_regularizer": null, "trainable": true, "epsilon": 0.001}, "name": "bn4c_branch2c"}, {"inbound_nodes": [[["bn4c_branch2c", 0, 0, {}], ["activation_27", 0, 0, {}]]], "class_name": "Add", "config": {"dtype": "float32", "trainable": true, "name": "add_9"}, "name": "add_9"}, {"inbound_nodes": [[["add_9", 0, 0, {}]]], "class_name": "Activation", "config": {"dtype": "float32", "trainable": true, "activation": "relu", "name": "activation_30"}, "name": "activation_30"}, {"inbound_nodes": [[["activation_30", 0, 0, {}]]], "class_name": "Conv2D", "config": {"kernel_constraint": null, "activity_regularizer": null, "kernel_initializer": {"class_name": "VarianceScaling", "config": {"dtype": "float32", "mode": "fan_avg", "distribution": "uniform", "scale": 1.0, "seed": null}}, "name": "res4d_branch2a", "dtype": "float32", "trainable": true, "bias_initializer": {"class_name": "Zeros", "config": {"dtype": "float32"}}, "bias_constraint": null, "strides": [1, 1], "data_format": "channels_last", "filters": 256, "dilation_rate": [1, 1], "kernel_regularizer": null, "use_bias": true, "bias_regularizer": null, "activation": "linear", "kernel_size": [1, 1], "padding": "valid"}, "name": "res4d_branch2a"}, {"inbound_nodes": [[["res4d_branch2a", 0, 0, {}]]], "class_name": "BatchNormalization", "config": {"gamma_initializer": {"class_name": "Ones", "config": {"dtype": "float32"}}, "name": "bn4d_branch2a", "beta_constraint": null, "momentum": 0.99, "scale": true, "center": true, "dtype": "float32", "axis": [3], "moving_mean_initializer": {"class_name": "Zeros", "config": {"dtype": "float32"}}, "beta_initializer": {"class_name": "Zeros", "config": {"dtype": "float32"}}, "gamma_regularizer": null, "gamma_constraint": null, "moving_variance_initializer": {"class_name": "Ones", "config": {"dtype": "float32"}}, "beta_regularizer": null, "trainable": true, "epsilon": 0.001}, "name": "bn4d_branch2a"}, {"inbound_nodes": [[["bn4d_branch2a", 0, 0, {}]]], "class_name": "Activation", "config": {"dtype": "float32", "trainable": true, "activation": "relu", "name": "activation_31"}, "name": "activation_31"}, {"inbound_nodes": [[["activation_31", 0, 0, {}]]], "class_name": "Conv2D", "config": {"kernel_constraint": null, "activity_regularizer": null, "kernel_initializer": {"class_name": "VarianceScaling", "config": {"dtype": "float32", "mode": "fan_avg", "distribution": "uniform", "scale": 1.0, "seed": null}}, "name": "res4d_branch2b", "dtype": "float32", "trainable": true, "bias_initializer": {"class_name": "Zeros", "config": {"dtype": "float32"}}, "bias_constraint": null, "strides": [1, 1], "data_format": "channels_last", "filters": 256, "dilation_rate": [1, 1], "kernel_regularizer": null, "use_bias": true, "bias_regularizer": null, "activation": "linear", "kernel_size": [3, 3], "padding": "same"}, "name": "res4d_branch2b"}, {"inbound_nodes": [[["res4d_branch2b", 0, 0, {}]]], "class_name": "BatchNormalization", "config": {"gamma_initializer": {"class_name": "Ones", "config": {"dtype": "float32"}}, "name": "bn4d_branch2b", "beta_constraint": null, "momentum": 0.99, "scale": true, "center": true, "dtype": "float32", "axis": [3], "moving_mean_initializer": {"class_name": "Zeros", "config": {"dtype": "float32"}}, "beta_initializer": {"class_name": "Zeros", "config": {"dtype": "float32"}}, "gamma_regularizer": null, "gamma_constraint": null, "moving_variance_initializer": {"class_name": "Ones", "config": {"dtype": "float32"}}, "beta_regularizer": null, "trainable": true, "epsilon": 0.001}, "name": "bn4d_branch2b"}, {"inbound_nodes": [[["bn4d_branch2b", 0, 0, {}]]], "class_name": "Activation", "config": {"dtype": "float32", "trainable": true, "activation": "relu", "name": "activation_32"}, "name": "activation_32"}, {"inbound_nodes": [[["activation_32", 0, 0, {}]]], "class_name": "Conv2D", "config": {"kernel_constraint": null, "activity_regularizer": null, "kernel_initializer": {"class_name": "VarianceScaling", "config": {"dtype": "float32", "mode": "fan_avg", "distribution": "uniform", "scale": 1.0, "seed": null}}, "name": "res4d_branch2c", "dtype": "float32", "trainable": true, "bias_initializer": {"class_name": "Zeros", "config": {"dtype": "float32"}}, "bias_constraint": null, "strides": [1, 1], "data_format": "channels_last", "filters": 1024, "dilation_rate": [1, 1], "kernel_regularizer": null, "use_bias": true, "bias_regularizer": null, "activation": "linear", "kernel_size": [1, 1], "padding": "valid"}, "name": "res4d_branch2c"}, {"inbound_nodes": [[["res4d_branch2c", 0, 0, {}]]], "class_name": "BatchNormalization", "config": {"gamma_initializer": {"class_name": "Ones", "config": {"dtype": "float32"}}, "name": "bn4d_branch2c", "beta_constraint": null, "momentum": 0.99, "scale": true, "center": true, "dtype": "float32", "axis": [3], "moving_mean_initializer": {"class_name": "Zeros", "config": {"dtype": "float32"}}, "beta_initializer": {"class_name": "Zeros", "config": {"dtype": "float32"}}, "gamma_regularizer": null, "gamma_constraint": null, "moving_variance_initializer": {"class_name": "Ones", "config": {"dtype": "float32"}}, "beta_regularizer": null, "trainable": true, "epsilon": 0.001}, "name": "bn4d_branch2c"}, {"inbound_nodes": [[["bn4d_branch2c", 0, 0, {}], ["activation_30", 0, 0, {}]]], "class_name": "Add", "config": {"dtype": "float32", "trainable": true, "name": "add_10"}, "name": "add_10"}, {"inbound_nodes": [[["add_10", 0, 0, {}]]], "class_name": "Activation", "config": {"dtype": "float32", "trainable": true, "activation": "relu", "name": "activation_33"}, "name": "activation_33"}, {"inbound_nodes": [[["activation_33", 0, 0, {}]]], "class_name": "Conv2D", "config": {"kernel_constraint": null, "activity_regularizer": null, "kernel_initializer": {"class_name": "VarianceScaling", "config": {"dtype": "float32", "mode": "fan_avg", "distribution": "uniform", "scale": 1.0, "seed": null}}, "name": "res4e_branch2a", "dtype": "float32", "trainable": true, "bias_initializer": {"class_name": "Zeros", "config": {"dtype": "float32"}}, "bias_constraint": null, "strides": [1, 1], "data_format": "channels_last", "filters": 256, "dilation_rate": [1, 1], "kernel_regularizer": null, "use_bias": true, "bias_regularizer": null, "activation": "linear", "kernel_size": [1, 1], "padding": "valid"}, "name": "res4e_branch2a"}, {"inbound_nodes": [[["res4e_branch2a", 0, 0, {}]]], "class_name": "BatchNormalization", "config": {"gamma_initializer": {"class_name": "Ones", "config": {"dtype": "float32"}}, "name": "bn4e_branch2a", "beta_constraint": null, "momentum": 0.99, "scale": true, "center": true, "dtype": "float32", "axis": [3], "moving_mean_initializer": {"class_name": "Zeros", "config": {"dtype": "float32"}}, "beta_initializer": {"class_name": "Zeros", "config": {"dtype": "float32"}}, "gamma_regularizer": null, "gamma_constraint": null, "moving_variance_initializer": {"class_name": "Ones", "config": {"dtype": "float32"}}, "beta_regularizer": null, "trainable": true, "epsilon": 0.001}, "name": "bn4e_branch2a"}, {"inbound_nodes": [[["bn4e_branch2a", 0, 0, {}]]], "class_name": "Activation", "config": {"dtype": "float32", "trainable": true, "activation": "relu", "name": "activation_34"}, "name": "activation_34"}, {"inbound_nodes": [[["activation_34", 0, 0, {}]]], "class_name": "Conv2D", "config": {"kernel_constraint": null, "activity_regularizer": null, "kernel_initializer": {"class_name": "VarianceScaling", "config": {"dtype": "float32", "mode": "fan_avg", "distribution": "uniform", "scale": 1.0, "seed": null}}, "name": "res4e_branch2b", "dtype": "float32", "trainable": true, "bias_initializer": {"class_name": "Zeros", "config": {"dtype": "float32"}}, "bias_constraint": null, "strides": [1, 1], "data_format": "channels_last", "filters": 256, "dilation_rate": [1, 1], "kernel_regularizer": null, "use_bias": true, "bias_regularizer": null, "activation": "linear", "kernel_size": [3, 3], "padding": "same"}, "name": "res4e_branch2b"}, {"inbound_nodes": [[["res4e_branch2b", 0, 0, {}]]], "class_name": "BatchNormalization", "config": {"gamma_initializer": {"class_name": "Ones", "config": {"dtype": "float32"}}, "name": "bn4e_branch2b", "beta_constraint": null, "momentum": 0.99, "scale": true, "center": true, "dtype": "float32", "axis": [3], "moving_mean_initializer": {"class_name": "Zeros", "config": {"dtype": "float32"}}, "beta_initializer": {"class_name": "Zeros", "config": {"dtype": "float32"}}, "gamma_regularizer": null, "gamma_constraint": null, "moving_variance_initializer": {"class_name": "Ones", "config": {"dtype": "float32"}}, "beta_regularizer": null, "trainable": true, "epsilon": 0.001}, "name": "bn4e_branch2b"}, {"inbound_nodes": [[["bn4e_branch2b", 0, 0, {}]]], "class_name": "Activation", "config": {"dtype": "float32", "trainable": true, "activation": "relu", "name": "activation_35"}, "name": "activation_35"}, {"inbound_nodes": [[["activation_35", 0, 0, {}]]], "class_name": "Conv2D", "config": {"kernel_constraint": null, "activity_regularizer": null, "kernel_initializer": {"class_name": "VarianceScaling", "config": {"dtype": "float32", "mode": "fan_avg", "distribution": "uniform", "scale": 1.0, "seed": null}}, "name": "res4e_branch2c", "dtype": "float32", "trainable": true, "bias_initializer": {"class_name": "Zeros", "config": {"dtype": "float32"}}, "bias_constraint": null, "strides": [1, 1], "data_format": "channels_last", "filters": 1024, "dilation_rate": [1, 1], "kernel_regularizer": null, "use_bias": true, "bias_regularizer": null, "activation": "linear", "kernel_size": [1, 1], "padding": "valid"}, "name": "res4e_branch2c"}, {"inbound_nodes": [[["res4e_branch2c", 0, 0, {}]]], "class_name": "BatchNormalization", "config": {"gamma_initializer": {"class_name": "Ones", "config": {"dtype": "float32"}}, "name": "bn4e_branch2c", "beta_constraint": null, "momentum": 0.99, "scale": true, "center": true, "dtype": "float32", "axis": [3], "moving_mean_initializer": {"class_name": "Zeros", "config": {"dtype": "float32"}}, "beta_initializer": {"class_name": "Zeros", "config": {"dtype": "float32"}}, "gamma_regularizer": null, "gamma_constraint": null, "moving_variance_initializer": {"class_name": "Ones", "config": {"dtype": "float32"}}, "beta_regularizer": null, "trainable": true, "epsilon": 0.001}, "name": "bn4e_branch2c"}, {"inbound_nodes": [[["bn4e_branch2c", 0, 0, {}], ["activation_33", 0, 0, {}]]], "class_name": "Add", "config": {"dtype": "float32", "trainable": true, "name": "add_11"}, "name": "add_11"}, {"inbound_nodes": [[["add_11", 0, 0, {}]]], "class_name": "Activation", "config": {"dtype": "float32", "trainable": true, "activation": "relu", "name": "activation_36"}, "name": "activation_36"}, {"inbound_nodes": [[["activation_36", 0, 0, {}]]], "class_name": "Conv2D", "config": {"kernel_constraint": null, "activity_regularizer": null, "kernel_initializer": {"class_name": "VarianceScaling", "config": {"dtype": "float32", "mode": "fan_avg", "distribution": "uniform", "scale": 1.0, "seed": null}}, "name": "res4f_branch2a", "dtype": "float32", "trainable": true, "bias_initializer": {"class_name": "Zeros", "config": {"dtype": "float32"}}, "bias_constraint": null, "strides": [1, 1], "data_format": "channels_last", "filters": 256, "dilation_rate": [1, 1], "kernel_regularizer": null, "use_bias": true, "bias_regularizer": null, "activation": "linear", "kernel_size": [1, 1], "padding": "valid"}, "name": "res4f_branch2a"}, {"inbound_nodes": [[["res4f_branch2a", 0, 0, {}]]], "class_name": "BatchNormalization", "config": {"gamma_initializer": {"class_name": "Ones", "config": {"dtype": "float32"}}, "name": "bn4f_branch2a", "beta_constraint": null, "momentum": 0.99, "scale": true, "center": true, "dtype": "float32", "axis": [3], "moving_mean_initializer": {"class_name": "Zeros", "config": {"dtype": "float32"}}, "beta_initializer": {"class_name": "Zeros", "config": {"dtype": "float32"}}, "gamma_regularizer": null, "gamma_constraint": null, "moving_variance_initializer": {"class_name": "Ones", "config": {"dtype": "float32"}}, "beta_regularizer": null, "trainable": true, "epsilon": 0.001}, "name": "bn4f_branch2a"}, {"inbound_nodes": [[["bn4f_branch2a", 0, 0, {}]]], "class_name": "Activation", "config": {"dtype": "float32", "trainable": true, "activation": "relu", "name": "activation_37"}, "name": "activation_37"}, {"inbound_nodes": [[["activation_37", 0, 0, {}]]], "class_name": "Conv2D", "config": {"kernel_constraint": null, "activity_regularizer": null, "kernel_initializer": {"class_name": "VarianceScaling", "config": {"dtype": "float32", "mode": "fan_avg", "distribution": "uniform", "scale": 1.0, "seed": null}}, "name": "res4f_branch2b", "dtype": "float32", "trainable": true, "bias_initializer": {"class_name": "Zeros", "config": {"dtype": "float32"}}, "bias_constraint": null, "strides": [1, 1], "data_format": "channels_last", "filters": 256, "dilation_rate": [1, 1], "kernel_regularizer": null, "use_bias": true, "bias_regularizer": null, "activation": "linear", "kernel_size": [3, 3], "padding": "same"}, "name": "res4f_branch2b"}, {"inbound_nodes": [[["res4f_branch2b", 0, 0, {}]]], "class_name": "BatchNormalization", "config": {"gamma_initializer": {"class_name": "Ones", "config": {"dtype": "float32"}}, "name": "bn4f_branch2b", "beta_constraint": null, "momentum": 0.99, "scale": true, "center": true, "dtype": "float32", "axis": [3], "moving_mean_initializer": {"class_name": "Zeros", "config": {"dtype": "float32"}}, "beta_initializer": {"class_name": "Zeros", "config": {"dtype": "float32"}}, "gamma_regularizer": null, "gamma_constraint": null, "moving_variance_initializer": {"class_name": "Ones", "config": {"dtype": "float32"}}, "beta_regularizer": null, "trainable": true, "epsilon": 0.001}, "name": "bn4f_branch2b"}, {"inbound_nodes": [[["bn4f_branch2b", 0, 0, {}]]], "class_name": "Activation", "config": {"dtype": "float32", "trainable": true, "activation": "relu", "name": "activation_38"}, "name": "activation_38"}, {"inbound_nodes": [[["activation_38", 0, 0, {}]]], "class_name": "Conv2D", "config": {"kernel_constraint": null, "activity_regularizer": null, "kernel_initializer": {"class_name": "VarianceScaling", "config": {"dtype": "float32", "mode": "fan_avg", "distribution": "uniform", "scale": 1.0, "seed": null}}, "name": "res4f_branch2c", "dtype": "float32", "trainable": true, "bias_initializer": {"class_name": "Zeros", "config": {"dtype": "float32"}}, "bias_constraint": null, "strides": [1, 1], "data_format": "channels_last", "filters": 1024, "dilation_rate": [1, 1], "kernel_regularizer": null, "use_bias": true, "bias_regularizer": null, "activation": "linear", "kernel_size": [1, 1], "padding": "valid"}, "name": "res4f_branch2c"}, {"inbound_nodes": [[["res4f_branch2c", 0, 0, {}]]], "class_name": "BatchNormalization", "config": {"gamma_initializer": {"class_name": "Ones", "config": {"dtype": "float32"}}, "name": "bn4f_branch2c", "beta_constraint": null, "momentum": 0.99, "scale": true, "center": true, "dtype": "float32", "axis": [3], "moving_mean_initializer": {"class_name": "Zeros", "config": {"dtype": "float32"}}, "beta_initializer": {"class_name": "Zeros", "config": {"dtype": "float32"}}, "gamma_regularizer": null, "gamma_constraint": null, "moving_variance_initializer": {"class_name": "Ones", "config": {"dtype": "float32"}}, "beta_regularizer": null, "trainable": true, "epsilon": 0.001}, "name": "bn4f_branch2c"}, {"inbound_nodes": [[["bn4f_branch2c", 0, 0, {}], ["activation_36", 0, 0, {}]]], "class_name": "Add", "config": {"dtype": "float32", "trainable": true, "name": "add_12"}, "name": "add_12"}, {"inbound_nodes": [[["add_12", 0, 0, {}]]], "class_name": "Activation", "config": {"dtype": "float32", "trainable": true, "activation": "relu", "name": "activation_39"}, "name": "activation_39"}, {"inbound_nodes": [[["activation_39", 0, 0, {}]]], "class_name": "Conv2D", "config": {"kernel_constraint": null, "activity_regularizer": null, "kernel_initializer": {"class_name": "VarianceScaling", "config": {"dtype": "float32", "mode": "fan_avg", "distribution": "uniform", "scale": 1.0, "seed": null}}, "name": "res5a_branch2a", "dtype": "float32", "trainable": true, "bias_initializer": {"class_name": "Zeros", "config": {"dtype": "float32"}}, "bias_constraint": null, "strides": [2, 2], "data_format": "channels_last", "filters": 512, "dilation_rate": [1, 1], "kernel_regularizer": null, "use_bias": true, "bias_regularizer": null, "activation": "linear", "kernel_size": [1, 1], "padding": "valid"}, "name": "res5a_branch2a"}, {"inbound_nodes": [[["res5a_branch2a", 0, 0, {}]]], "class_name": "BatchNormalization", "config": {"gamma_initializer": {"class_name": "Ones", "config": {"dtype": "float32"}}, "name": "bn5a_branch2a", "beta_constraint": null, "momentum": 0.99, "scale": true, "center": true, "dtype": "float32", "axis": [3], "moving_mean_initializer": {"class_name": "Zeros", "config": {"dtype": "float32"}}, "beta_initializer": {"class_name": "Zeros", "config": {"dtype": "float32"}}, "gamma_regularizer": null, "gamma_constraint": null, "moving_variance_initializer": {"class_name": "Ones", "config": {"dtype": "float32"}}, "beta_regularizer": null, "trainable": true, "epsilon": 0.001}, "name": "bn5a_branch2a"}, {"inbound_nodes": [[["bn5a_branch2a", 0, 0, {}]]], "class_name": "Activation", "config": {"dtype": "float32", "trainable": true, "activation": "relu", "name": "activation_40"}, "name": "activation_40"}, {"inbound_nodes": [[["activation_40", 0, 0, {}]]], "class_name": "Conv2D", "config": {"kernel_constraint": null, "activity_regularizer": null, "kernel_initializer": {"class_name": "VarianceScaling", "config": {"dtype": "float32", "mode": "fan_avg", "distribution": "uniform", "scale": 1.0, "seed": null}}, "name": "res5a_branch2b", "dtype": "float32", "trainable": true, "bias_initializer": {"class_name": "Zeros", "config": {"dtype": "float32"}}, "bias_constraint": null, "strides": [1, 1], "data_format": "channels_last", "filters": 512, "dilation_rate": [1, 1], "kernel_regularizer": null, "use_bias": true, "bias_regularizer": null, "activation": "linear", "kernel_size": [3, 3], "padding": "same"}, "name": "res5a_branch2b"}, {"inbound_nodes": [[["res5a_branch2b", 0, 0, {}]]], "class_name": "BatchNormalization", "config": {"gamma_initializer": {"class_name": "Ones", "config": {"dtype": "float32"}}, "name": "bn5a_branch2b", "beta_constraint": null, "momentum": 0.99, "scale": true, "center": true, "dtype": "float32", "axis": [3], "moving_mean_initializer": {"class_name": "Zeros", "config": {"dtype": "float32"}}, "beta_initializer": {"class_name": "Zeros", "config": {"dtype": "float32"}}, "gamma_regularizer": null, "gamma_constraint": null, "moving_variance_initializer": {"class_name": "Ones", "config": {"dtype": "float32"}}, "beta_regularizer": null, "trainable": true, "epsilon": 0.001}, "name": "bn5a_branch2b"}, {"inbound_nodes": [[["bn5a_branch2b", 0, 0, {}]]], "class_name": "Activation", "config": {"dtype": "float32", "trainable": true, "activation": "relu", "name": "activation_41"}, "name": "activation_41"}, {"inbound_nodes": [[["activation_41", 0, 0, {}]]], "class_name": "Conv2D", "config": {"kernel_constraint": null, "activity_regularizer": null, "kernel_initializer": {"class_name": "VarianceScaling", "config": {"dtype": "float32", "mode": "fan_avg", "distribution": "uniform", "scale": 1.0, "seed": null}}, "name": "res5a_branch2c", "dtype": "float32", "trainable": true, "bias_initializer": {"class_name": "Zeros", "config": {"dtype": "float32"}}, "bias_constraint": null, "strides": [1, 1], "data_format": "channels_last", "filters": 2048, "dilation_rate": [1, 1], "kernel_regularizer": null, "use_bias": true, "bias_regularizer": null, "activation": "linear", "kernel_size": [1, 1], "padding": "valid"}, "name": "res5a_branch2c"}, {"inbound_nodes": [[["activation_39", 0, 0, {}]]], "class_name": "Conv2D", "config": {"kernel_constraint": null, "activity_regularizer": null, "kernel_initializer": {"class_name": "VarianceScaling", "config": {"dtype": "float32", "mode": "fan_avg", "distribution": "uniform", "scale": 1.0, "seed": null}}, "name": "res5a_branch1", "dtype": "float32", "trainable": true, "bias_initializer": {"class_name": "Zeros", "config": {"dtype": "float32"}}, "bias_constraint": null, "strides": [2, 2], "data_format": "channels_last", "filters": 2048, "dilation_rate": [1, 1], "kernel_regularizer": null, "use_bias": true, "bias_regularizer": null, "activation": "linear", "kernel_size": [1, 1], "padding": "valid"}, "name": "res5a_branch1"}, {"inbound_nodes": [[["res5a_branch2c", 0, 0, {}]]], "class_name": "BatchNormalization", "config": {"gamma_initializer": {"class_name": "Ones", "config": {"dtype": "float32"}}, "name": "bn5a_branch2c", "beta_constraint": null, "momentum": 0.99, "scale": true, "center": true, "dtype": "float32", "axis": [3], "moving_mean_initializer": {"class_name": "Zeros", "config": {"dtype": "float32"}}, "beta_initializer": {"class_name": "Zeros", "config": {"dtype": "float32"}}, "gamma_regularizer": null, "gamma_constraint": null, "moving_variance_initializer": {"class_name": "Ones", "config": {"dtype": "float32"}}, "beta_regularizer": null, "trainable": true, "epsilon": 0.001}, "name": "bn5a_branch2c"}, {"inbound_nodes": [[["res5a_branch1", 0, 0, {}]]], "class_name": "BatchNormalization", "config": {"gamma_initializer": {"class_name": "Ones", "config": {"dtype": "float32"}}, "name": "bn5a_branch1", "beta_constraint": null, "momentum": 0.99, "scale": true, "center": true, "dtype": "float32", "axis": [3], "moving_mean_initializer": {"class_name": "Zeros", "config": {"dtype": "float32"}}, "beta_initializer": {"class_name": "Zeros", "config": {"dtype": "float32"}}, "gamma_regularizer": null, "gamma_constraint": null, "moving_variance_initializer": {"class_name": "Ones", "config": {"dtype": "float32"}}, "beta_regularizer": null, "trainable": true, "epsilon": 0.001}, "name": "bn5a_branch1"}, {"inbound_nodes": [[["bn5a_branch2c", 0, 0, {}], ["bn5a_branch1", 0, 0, {}]]], "class_name": "Add", "config": {"dtype": "float32", "trainable": true, "name": "add_13"}, "name": "add_13"}, {"inbound_nodes": [[["add_13", 0, 0, {}]]], "class_name": "Activation", "config": {"dtype": "float32", "trainable": true, "activation": "relu", "name": "activation_42"}, "name": "activation_42"}, {"inbound_nodes": [[["activation_42", 0, 0, {}]]], "class_name": "Conv2D", "config": {"kernel_constraint": null, "activity_regularizer": null, "kernel_initializer": {"class_name": "VarianceScaling", "config": {"dtype": "float32", "mode": "fan_avg", "distribution": "uniform", "scale": 1.0, "seed": null}}, "name": "res5b_branch2a", "dtype": "float32", "trainable": true, "bias_initializer": {"class_name": "Zeros", "config": {"dtype": "float32"}}, "bias_constraint": null, "strides": [1, 1], "data_format": "channels_last", "filters": 512, "dilation_rate": [1, 1], "kernel_regularizer": null, "use_bias": true, "bias_regularizer": null, "activation": "linear", "kernel_size": [1, 1], "padding": "valid"}, "name": "res5b_branch2a"}, {"inbound_nodes": [[["res5b_branch2a", 0, 0, {}]]], "class_name": "BatchNormalization", "config": {"gamma_initializer": {"class_name": "Ones", "config": {"dtype": "float32"}}, "name": "bn5b_branch2a", "beta_constraint": null, "momentum": 0.99, "scale": true, "center": true, "dtype": "float32", "axis": [3], "moving_mean_initializer": {"class_name": "Zeros", "config": {"dtype": "float32"}}, "beta_initializer": {"class_name": "Zeros", "config": {"dtype": "float32"}}, "gamma_regularizer": null, "gamma_constraint": null, "moving_variance_initializer": {"class_name": "Ones", "config": {"dtype": "float32"}}, "beta_regularizer": null, "trainable": true, "epsilon": 0.001}, "name": "bn5b_branch2a"}, {"inbound_nodes": [[["bn5b_branch2a", 0, 0, {}]]], "class_name": "Activation", "config": {"dtype": "float32", "trainable": true, "activation": "relu", "name": "activation_43"}, "name": "activation_43"}, {"inbound_nodes": [[["activation_43", 0, 0, {}]]], "class_name": "Conv2D", "config": {"kernel_constraint": null, "activity_regularizer": null, "kernel_initializer": {"class_name": "VarianceScaling", "config": {"dtype": "float32", "mode": "fan_avg", "distribution": "uniform", "scale": 1.0, "seed": null}}, "name": "res5b_branch2b", "dtype": "float32", "trainable": true, "bias_initializer": {"class_name": "Zeros", "config": {"dtype": "float32"}}, "bias_constraint": null, "strides": [1, 1], "data_format": "channels_last", "filters": 512, "dilation_rate": [1, 1], "kernel_regularizer": null, "use_bias": true, "bias_regularizer": null, "activation": "linear", "kernel_size": [3, 3], "padding": "same"}, "name": "res5b_branch2b"}, {"inbound_nodes": [[["res5b_branch2b", 0, 0, {}]]], "class_name": "BatchNormalization", "config": {"gamma_initializer": {"class_name": "Ones", "config": {"dtype": "float32"}}, "name": "bn5b_branch2b", "beta_constraint": null, "momentum": 0.99, "scale": true, "center": true, "dtype": "float32", "axis": [3], "moving_mean_initializer": {"class_name": "Zeros", "config": {"dtype": "float32"}}, "beta_initializer": {"class_name": "Zeros", "config": {"dtype": "float32"}}, "gamma_regularizer": null, "gamma_constraint": null, "moving_variance_initializer": {"class_name": "Ones", "config": {"dtype": "float32"}}, "beta_regularizer": null, "trainable": true, "epsilon": 0.001}, "name": "bn5b_branch2b"}, {"inbound_nodes": [[["bn5b_branch2b", 0, 0, {}]]], "class_name": "Activation", "config": {"dtype": "float32", "trainable": true, "activation": "relu", "name": "activation_44"}, "name": "activation_44"}, {"inbound_nodes": [[["activation_44", 0, 0, {}]]], "class_name": "Conv2D", "config": {"kernel_constraint": null, "activity_regularizer": null, "kernel_initializer": {"class_name": "VarianceScaling", "config": {"dtype": "float32", "mode": "fan_avg", "distribution": "uniform", "scale": 1.0, "seed": null}}, "name": "res5b_branch2c", "dtype": "float32", "trainable": true, "bias_initializer": {"class_name": "Zeros", "config": {"dtype": "float32"}}, "bias_constraint": null, "strides": [1, 1], "data_format": "channels_last", "filters": 2048, "dilation_rate": [1, 1], "kernel_regularizer": null, "use_bias": true, "bias_regularizer": null, "activation": "linear", "kernel_size": [1, 1], "padding": "valid"}, "name": "res5b_branch2c"}, {"inbound_nodes": [[["res5b_branch2c", 0, 0, {}]]], "class_name": "BatchNormalization", "config": {"gamma_initializer": {"class_name": "Ones", "config": {"dtype": "float32"}}, "name": "bn5b_branch2c", "beta_constraint": null, "momentum": 0.99, "scale": true, "center": true, "dtype": "float32", "axis": [3], "moving_mean_initializer": {"class_name": "Zeros", "config": {"dtype": "float32"}}, "beta_initializer": {"class_name": "Zeros", "config": {"dtype": "float32"}}, "gamma_regularizer": null, "gamma_constraint": null, "moving_variance_initializer": {"class_name": "Ones", "config": {"dtype": "float32"}}, "beta_regularizer": null, "trainable": true, "epsilon": 0.001}, "name": "bn5b_branch2c"}, {"inbound_nodes": [[["bn5b_branch2c", 0, 0, {}], ["activation_42", 0, 0, {}]]], "class_name": "Add", "config": {"dtype": "float32", "trainable": true, "name": "add_14"}, "name": "add_14"}, {"inbound_nodes": [[["add_14", 0, 0, {}]]], "class_name": "Activation", "config": {"dtype": "float32", "trainable": true, "activation": "relu", "name": "activation_45"}, "name": "activation_45"}, {"inbound_nodes": [[["activation_45", 0, 0, {}]]], "class_name": "Conv2D", "config": {"kernel_constraint": null, "activity_regularizer": null, "kernel_initializer": {"class_name": "VarianceScaling", "config": {"dtype": "float32", "mode": "fan_avg", "distribution": "uniform", "scale": 1.0, "seed": null}}, "name": "res5c_branch2a", "dtype": "float32", "trainable": true, "bias_initializer": {"class_name": "Zeros", "config": {"dtype": "float32"}}, "bias_constraint": null, "strides": [1, 1], "data_format": "channels_last", "filters": 512, "dilation_rate": [1, 1], "kernel_regularizer": null, "use_bias": true, "bias_regularizer": null, "activation": "linear", "kernel_size": [1, 1], "padding": "valid"}, "name": "res5c_branch2a"}, {"inbound_nodes": [[["res5c_branch2a", 0, 0, {}]]], "class_name": "BatchNormalization", "config": {"gamma_initializer": {"class_name": "Ones", "config": {"dtype": "float32"}}, "name": "bn5c_branch2a", "beta_constraint": null, "momentum": 0.99, "scale": true, "center": true, "dtype": "float32", "axis": [3], "moving_mean_initializer": {"class_name": "Zeros", "config": {"dtype": "float32"}}, "beta_initializer": {"class_name": "Zeros", "config": {"dtype": "float32"}}, "gamma_regularizer": null, "gamma_constraint": null, "moving_variance_initializer": {"class_name": "Ones", "config": {"dtype": "float32"}}, "beta_regularizer": null, "trainable": true, "epsilon": 0.001}, "name": "bn5c_branch2a"}, {"inbound_nodes": [[["bn5c_branch2a", 0, 0, {}]]], "class_name": "Activation", "config": {"dtype": "float32", "trainable": true, "activation": "relu", "name": "activation_46"}, "name": "activation_46"}, {"inbound_nodes": [[["activation_46", 0, 0, {}]]], "class_name": "Conv2D", "config": {"kernel_constraint": null, "activity_regularizer": null, "kernel_initializer": {"class_name": "VarianceScaling", "config": {"dtype": "float32", "mode": "fan_avg", "distribution": "uniform", "scale": 1.0, "seed": null}}, "name": "res5c_branch2b", "dtype": "float32", "trainable": true, "bias_initializer": {"class_name": "Zeros", "config": {"dtype": "float32"}}, "bias_constraint": null, "strides": [1, 1], "data_format": "channels_last", "filters": 512, "dilation_rate": [1, 1], "kernel_regularizer": null, "use_bias": true, "bias_regularizer": null, "activation": "linear", "kernel_size": [3, 3], "padding": "same"}, "name": "res5c_branch2b"}, {"inbound_nodes": [[["res5c_branch2b", 0, 0, {}]]], "class_name": "BatchNormalization", "config": {"gamma_initializer": {"class_name": "Ones", "config": {"dtype": "float32"}}, "name": "bn5c_branch2b", "beta_constraint": null, "momentum": 0.99, "scale": true, "center": true, "dtype": "float32", "axis": [3], "moving_mean_initializer": {"class_name": "Zeros", "config": {"dtype": "float32"}}, "beta_initializer": {"class_name": "Zeros", "config": {"dtype": "float32"}}, "gamma_regularizer": null, "gamma_constraint": null, "moving_variance_initializer": {"class_name": "Ones", "config": {"dtype": "float32"}}, "beta_regularizer": null, "trainable": true, "epsilon": 0.001}, "name": "bn5c_branch2b"}, {"inbound_nodes": [[["bn5c_branch2b", 0, 0, {}]]], "class_name": "Activation", "config": {"dtype": "float32", "trainable": true, "activation": "relu", "name": "activation_47"}, "name": "activation_47"}, {"inbound_nodes": [[["activation_47", 0, 0, {}]]], "class_name": "Conv2D", "config": {"kernel_constraint": null, "activity_regularizer": null, "kernel_initializer": {"class_name": "VarianceScaling", "config": {"dtype": "float32", "mode": "fan_avg", "distribution": "uniform", "scale": 1.0, "seed": null}}, "name": "res5c_branch2c", "dtype": "float32", "trainable": true, "bias_initializer": {"class_name": "Zeros", "config": {"dtype": "float32"}}, "bias_constraint": null, "strides": [1, 1], "data_format": "channels_last", "filters": 2048, "dilation_rate": [1, 1], "kernel_regularizer": null, "use_bias": true, "bias_regularizer": null, "activation": "linear", "kernel_size": [1, 1], "padding": "valid"}, "name": "res5c_branch2c"}, {"inbound_nodes": [[["res5c_branch2c", 0, 0, {}]]], "class_name": "BatchNormalization", "config": {"gamma_initializer": {"class_name": "Ones", "config": {"dtype": "float32"}}, "name": "bn5c_branch2c", "beta_constraint": null, "momentum": 0.99, "scale": true, "center": true, "dtype": "float32", "axis": [3], "moving_mean_initializer": {"class_name": "Zeros", "config": {"dtype": "float32"}}, "beta_initializer": {"class_name": "Zeros", "config": {"dtype": "float32"}}, "gamma_regularizer": null, "gamma_constraint": null, "moving_variance_initializer": {"class_name": "Ones", "config": {"dtype": "float32"}}, "beta_regularizer": null, "trainable": true, "epsilon": 0.001}, "name": "bn5c_branch2c"}, {"inbound_nodes": [[["bn5c_branch2c", 0, 0, {}], ["activation_45", 0, 0, {}]]], "class_name": "Add", "config": {"dtype": "float32", "trainable": true, "name": "add_15"}, "name": "add_15"}, {"inbound_nodes": [[["add_15", 0, 0, {}]]], "class_name": "Activation", "config": {"dtype": "float32", "trainable": true, "activation": "relu", "name": "activation_48"}, "name": "activation_48"}, {"inbound_nodes": [[["activation_48", 0, 0, {}]]], "class_name": "AveragePooling2D", "config": {"strides": [7, 7], "trainable": true, "dtype": "float32", "pool_size": [7, 7], "name": "avg_pool", "data_format": "channels_last", "padding": "valid"}, "name": "avg_pool"}, {"inbound_nodes": [[["avg_pool", 0, 0, {}]]], "class_name": "Flatten", "config": {"dtype": "float32", "trainable": true, "data_format": "channels_last", "name": "flatten"}, "name": "flatten"}, {"inbound_nodes": [[["flatten", 0, 0, {}]]], "class_name": "Dropout", "config": {"noise_shape": null, "trainable": true, "dtype": "float32", "rate": 0.5, "name": "dropout", "seed": null}, "name": "dropout"}, {"inbound_nodes": [[["dropout", 0, 0, {}]]], "class_name": "Dense", "config": {"kernel_constraint": null, "trainable": true, "dtype": "float32", "name": "softmax", "bias_regularizer": null, "bias_initializer": {"class_name": "Zeros", "config": {"dtype": "float32"}}, "bias_constraint": null, "kernel_initializer": {"class_name": "VarianceScaling", "config": {"dtype": "float32", "mode": "fan_avg", "distribution": "uniform", "scale": 1.0, "seed": null}}, "kernel_regularizer": null, "activity_regularizer": null, "use_bias": true, "activation": "softmax", "units": 2}, "name": "softmax"}], "input_layers": [["input_1", 0, 0]], "output_layers": [["softmax", 0, 0]], "name": "model"}}, "keras_version": "2.1.6-tf", "backend": "tensorflow"}}